lstm_reg.pt (torch, 39198 bytes, 9 tensors)

lstm.weight_ih_l0 f4 [128, 1]
-0.46008134 -0.32466426 -0.6250436 -0.91430664 -0.81697184 -0.63799083 0.26933903 -0.15367062
0.03751466 1.2153978 -1.1868318 -1.4946083 -0.5595509 0.2879927 0.3380701 -0.34288222
-0.0836498 0.38698348 -0.8163308 -0.30147752 -0.6412081 -0.52088076 0.15915039 0.17528903
-0.5412856 1.6790559 -1.4576715 -0.5778937 -0.4557555 -1.49147 -0.4554361 -0.957447
-0.19914743 0.43954837 -0.38162842 -0.11367526 0.5659754 -0.50328994 0.32505986 0.20575161
0.7464187 -0.658724 -0.21789777 -0.78533566 0.09640855 -0.2243894 0.7037856 -1.0591627
0.23323248 -0.42852733 0.40942404 -0.7842948 0.032136746 -0.034529977 0.43986067 0.39119592
0.3057648 -0.09511173 -0.8624068 0.2612399 -0.9797218 -0.6685847 -0.49972847 -0.6356926
0.3293651 0.58510345 -0.054322157 -0.10675464 0.42762384 0.37823525 -0.58914757 -0.55326474
-0.38638568 -0.7959596 0.120411746 0.07159556 -0.61302537 -0.60695714 -0.37178543 0.71704155
-0.57278514 0.641199 0.23623258 -0.6607452 -0.3262201 0.4735382 -0.6437864 0.6359105
0.21154073 -0.7351121 0.39908642 0.2213909 0.68279654 0.058859464 -0.5248601 -0.14481936
-0.2835603 -0.1131561 -0.4347724 -0.6281369 -0.056307096 -0.6204773 0.1490124 0.28930786
-0.12351548 1.3981079 -0.7703051 -1.3511077 0.0086377 0.044767343 0.35908732 0.037864473
0.27211362 0.27265936 -0.44834048 -0.40298396 -0.5404035 -0.47083023 0.6887855 0.33879516
-0.36852533 1.6848314 -1.0503979 -0.33086598 -0.39955696 -1.5471964 -0.8069377 -0.76637226
00000000: c88f ebbe 653a a6be db02 20bf 0010 6abf
00000010: 1125 51bf 5e53 23bf cee6 893e d55b 1dbe
00000020: f9a8 193d 2892 9b3f 1bea 97bf 534f bfbf
00000030: ba3e 0fbf c773 933e 8617 ad3e 428e afbe
00000040: 9650 abbd b322 c63e 0efb 50bf 435b 9abe
00000050: 3726 24bf 7158 05bf 52f8 223e f87e 333e
00000060: b191 0abf 4eeb d63f fb94 babf d7f0 13bf
00000070: c958 e9be 7de8 bebf ec2e e9be 3f1b 75bf
00000080: 4eed 4bbe 7c0c e13e cd64 c3be 93ce e8bd
00000090: c4e3 103f 9cd7 00bf 3f6e a63e 8db0 523e
000000a0: 4c15 3f3f 23a2 28bf 9820 5fbe c20b 49bf
000000b0: d971 c53d 56c6 65be 4b2b 343f a592 87bf
000000c0: 7fd4 6e3e ef67 dbbe 07a0 d13e 8bc7 48bf
000000d0: d2a1 033d 4e6f 0dbd 6b35 e13e d54a c83e
000000e0: 348d 9c3e f0c9 c2bd b1c6 5cbf 3cc1 853e
000000f0: 0ccf 7abf 5e28 2bbf 69dc ffbe c0bc 22bf
00000100: 8ba2 a83e 57c9 153f e980 5ebd 2da2 dabd
00000110: 83f1 da3e 0da8 c13e 60d2 16bf c2a2 0dbf
00000120: 58d4 c5be 02c4 4bbf 6f9a f63d b1a0 923d
00000130: 3bef 1cbf 8b61 1bbf a95a bebe 0990 373f
00000140: 0ca2 12bf 9e25 243f f4e6 713e 9926 29bf
00000150: 5206 a7be 9973 f23e 2fcf 24bf 08cb 223f
00000160: 229e 583e 4e30 3cbf 0e55 cc3e 4cb4 623e
00000170: c1cb 2e3f 9f16 713d 3b5d 06bf 874b 14be
00000180: d12e 91be 63be e7bd 7d9a debe 94cd 20bf
00000190: 45a2 66bd 9ad7 1ebf b596 183e 2920 943e
000001a0: aff5 fcbd 33f5 b23f b732 45bf 19f1 acbf
000001b0: 2485 0d3c f65d 373d 4bda b73e c717 1b3d
000001c0: 7a52 8b3e 029a 8b3e e28c e5be ea53 cebe
000001d0: e257 0abf a910 f1be 3f54 303f 8f76 ad3e
000001e0: 5aaf bcbe 8ea8 d73f 7073 86bf 4467 a9be
000001f0: bb92 ccbe 880a c6bf 7893 4ebf f930 44bf

lstm.weight_hh_l0 f4 [128, 32]
0.38353336 -0.27609906 -0.6103057 0.34531862 0.5291977 -0.49407336 -0.5647401 -0.26928753
1.1595348 1.1683939 -0.22006948 0.14993238 0.64048743 1.1087189 0.55676067 -0.63935703
-0.7336855 1.1272801 -0.13630678 -0.020737661 -0.45090148 1.2909214 0.26310253 0.41696745
-0.30335087 0.5853899 0.1609221 -0.5421229 -0.30124447 -0.003347987 0.78256416 -0.51401716
0.56388056 -0.010845592 -1.2323743 0.4942786 0.09729496 -0.06890485 -0.6282289 -0.26331064
-0.43839484 -0.08667504 0.5251803 0.10661894 0.12769978 0.53528285 0.23361817 -0.037553627
0.011580083 0.32173765 -0.30984896 -0.7945391 0.026523486 0.7642419 0.33029515 0.2274046
0.5135179 -0.57881624 0.33710766 0.21043183 0.46548426 -0.17991202 0.72677284 0.13748677
-0.41327354 -1.1953709 0.44928974 0.48958138 0.08041052 1.0851614 0.79705846 0.4136141
0.37420905 -0.07964738 0.6626063 0.24225746 -0.31503227 -0.58605963 0.3496659 0.23442909
0.7899839 -0.13098547 -0.9685924 0.24791381 -0.6640945 1.1402977 -0.076145604 -1.1838272
0.031077461 0.116078824 1.1346822 0.6739959 -0.5680367 -0.16092022 -1.105865 0.37709427
0.3938631 -0.28175774 0.14128299 -0.9551078 0.87207454 -0.45373863 -0.41406232 -1.1189735
-0.60446274 1.4444228 -0.3680481 -0.87286097 -1.6931959 -0.632619 -0.25212273 -2.0450552
-0.7033085 -0.14842394 -0.40506312 1.469677 -0.79188657 1.3771634 0.2153046 -1.0091608
0.2622352 2.7751286 -0.57473594 0.6662543 -0.14817008 0.053699218 -0.4093693 -0.42755997
-0.32511303 0.5983729 -0.29045674 1.6819538 2.1923819 0.83164334 -1.9293474 -0.08464181
-0.11741777 -4.126699 0.8994707 0.966782 -1.3851845 -2.4529765 0.11554631 1.7975286
-0.64797914 2.2897565 0.107991666 -2.8612123 0.3181022 0.3334339 -3.00512 1.3985748
0.7826655 -4.8870244 1.370914 -0.7560677 1.9549578 -0.116990514 -0.38855687 0.8198569
-0.28328592 -1.1613328 -1.0451028 0.35368928 0.50320244 -0.1769573 -0.37357932 0.5060918
0.048711825 -0.69902325 -0.00879956 -0.12414533 0.31268838 0.88664806 0.10751243 0.31784165
0.7064146 -0.22957669 0.21590513 -1.1472133 0.60676265 -0.06728574 1.414423 -0.67152816
0.06706435 -0.7356219 0.40256634 -0.6331215 0.84478533 0.119085625 0.7583823 0.12929133
0.33132488 1.1652443 0.028246557 -1.375044 1.4950058 -0.26481667 -0.9355886 -1.0752616
-0.13317254 -0.22498329 -0.109836265 0.18368925 -1.0438176 -0.8901402 0.21607023 0.36791477
-1.0281992 1.7839602 -0.079058155 -0.57591736 -0.1825562 0.7382404 -1.1711615 0.8717252
0.5489678 -0.4083778 0.6805283 2.155121 0.9662679 0.3699421 -0.6836613 -0.41941088
0.20676717 -0.21984185 -0.624583 0.3884044 0.086289264 0.031067941 0.0506723 0.17076775
-0.043233424 0.07088163 0.1969902 0.1613719 -0.20570536 0.54156107 -0.10014929 -0.32294178
0.6595546 0.20667061 -0.4611707 -0.660903 0.60665035 0.49491668 0.2652468 -0.5574523
0.17207757 0.20259243 0.13589121 0.53507 -0.069901526 0.33638567 -0.41049817 0.3992497
00000000: 7c5e c43e db5c 8dbe ff3c 1cbf 9acd b03e
00000010: 8079 073f 2ff7 fcbe cf92 10bf 0ee0 89be
00000020: a36b 943f ee8d 953f e559 61be e087 193e
00000030: fcf6 233f 80ea 8d3f de87 0e3f e7ac 23bf
00000040: d0d2 3bbf b74a 903f 0194 0bbe 07e2 a9bc
00000050: 8fdc e6be ea3c a53f 60b5 863e c27c d53e
00000060: ce50 9bbe 1ddc 153f c3c8 243e 91c8 0abf
00000070: b73c 9abe e769 5bbb 2056 483f a196 03bf
00000080: 7a5a 103f b6b1 31bc 71be 9dbf 1612 fd3e
00000090: 9442 c73d fc1d 8dbd 9cd3 20bf a7d0 86be
000000a0: 4a75 e0be af82 b1bd 3772 063f 085b da3d
000000b0: bbc3 023e 4c08 093f 9a39 6f3e d5d1 19bd
000000c0: 63ba 3d3c ccba a43e 86a4 9ebe ea66 4bbf
000000d0: c847 d93c 5ba5 433f 721c a93e c0dc 683e
000000e0: e975 033f 4d2d 14bf 6099 ac3e 717b 573e
000000f0: f453 ee3e db3a 38be c90d 3a3f 55c9 0c3e
00000100: 9798 d3be ea01 99bf 4e09 e63e 69aa fa3e
00000110: 45ae a43d 92e6 8a3f 060c 4c3f 3ac5 d33e
00000120: 5498 bf3e 2a1e a3bd 91a0 293f 5712 783e
00000130: e94b a1be 0108 16bf 6907 b33e 2e0e 703e
00000140: 633c 4a3f 0e21 06be acf5 77bf 1edd 7d3e
00000150: 1902 2abf 46f5 913f 3af2 9bbd a687 97bf
00000160: 2996 fe3c bcba ed3d 443d 913f ff8a 2c3f
00000170: da6a 11bf 45c8 24be fc8c 8dbf 8012 c13e
00000180: 6da8 c93e 8d42 90be 7dac 103e f281 74bf
00000190: 4740 5f3f 6e50 e8be faff d3be 863a 8fbf
000001a0: 12be 1abf d9e2 b83f cd70 bcbe d173 5fbf
000001b0: a5ba d8bf 52f3 21bf 3b16 81be 2fe2 02c0
000001c0: 070c 34bf 72fc 17be 6f64 cfbe 601e bc3f
000001d0: 14b9 4abf e446 b03f cf78 5c3e 2e2c 81bf
000001e0: b143 863e b59b 3140 e521 13bf a48f 2a3f
000001f0: e6b9 17be b6f3 5b3d da98 d1be 24e9 dabe
00000200: 3775 a6be f72e 193f bfb6 94be 434a d73f
00000210: fc4f 0c40 94e6 543f dbf4 f6bf af58 adbd
00000220: ba78 f0bd eb0d 84c0 b643 663f 067f 773f
00000230: ba4d b1bf 91fd 1cc0 8ba3 ec3d 6b15 e63f
00000240: f6e1 25bf 5f8b 1240 bc2a dd3d 1a1e 37c0
00000250: 4bde a23e d9b7 aa3e e353 40c0 8004 b33f
00000260: c45c 483f 8162 9cc0 1c7a af3f a78d 41bf
00000270: 0f3c fa3f b998 efbd edf0 c6be 24e2 513f
00000280: da0a 91be 8ea6 94bf eec5 85bf c316 b53e
00000290: e0d1 003f 4b34 35be ca45 bfbe 3b8f 013f
000002a0: 0d86 473d 30f3 32bf 082c 10bc e83f febd
000002b0: b118 a03e 5efb 623f 7a2f dc3d 24bc a23e
000002c0: 96d7 343f 2716 6bbe 3c16 5d3e e3d7 92bf
000002d0: cc54 1b3f 1bcd 89bd d00b b53f 45e9 2bbf
000002e0: 0959 893d b851 3cbf 2d1d ce3e 4014 22bf
000002f0: da43 583f 2ae3 f33d 5825 423f f264 043e
00000300: 6aa3 a93e ba26 953f 5365 e73c 7101 b0bf
00000310: 5a5c bf3f 0d96 87be bc82 6fbf 2ca2 89bf
00000320: 625e 08be 0562 66be d6f1 e0bd 0919 3c3e
00000330: d19b 85bf 3ae0 63bf 8441 5d3e 535f bc3e
00000340: 089c 83bf cf58 e43f 3ee9 a1bd 526f 13bf
00000350: 03f0 3abe 53fd 3c3f 9fe8 95bf 6229 5f3f
00000360: 2789 0c3f e516 d1be 1a37 2e3f 81ed 0940
00000370: 555d 773f 0d69 bd3e 6d04 2fbf 06bd d6be
00000380: c6ba 533e 391e 61be ace4 1fbf f1dc c63e
00000390: 6db8 b03d 3282 fe3c c28d 4f3d bedd 2e3e
000003a0: 8815 31bd 632a 913d cdb7 493e ad3e 253e
000003b0: 6da4 52be bfa3 0a3f 121b cdbd a058 a5be
000003c0: 92d8 283f 76a1 533e 911e ecbe f030 29bf
000003d0: 704d 1b3f b865 fd3e 6ece 873e 32b5 0ebf
000003e0: 1a35 303e 6474 4f3e 1127 0b3e 59fa 083f
000003f0: 8828 8fbd be3a ac3e d12c d2be 756a cc3e

lstm.bias_ih_l0 f4 [128]
-0.9388203 -0.651759 -0.6244473 -0.6606789 -0.42182505 -0.29466328 0.085587375 0.24586979
-0.39426988 1.3011197 -0.6231174 -1.2968215 -0.081460945 0.1401117 0.2694529 0.0016082714
0.32909915 0.23347645 -0.16389306 0.32299444 -0.34744027 0.15370758 0.5198945 0.36617237
-0.9108146 1.3244483 -0.37549943 -0.3696198 -0.010355064 -1.6977378 -0.28085646 -1.1006613
-0.52707326 -0.08252026 -0.1475924 -0.08339742 0.41805533 -0.30440152 0.17288718 0.060817864
0.16599603 -0.62012726 -0.091903195 -0.6661478 -0.23347132 -0.39165264 0.4196818 -1.130452
0.08484655 -0.8707156 0.56972533 -0.2226397 -0.021741478 0.43718773 0.3391024 -0.036303055
-0.23989815 -0.3088518 -0.19352132 0.0186332 -0.7480746 -0.69955724 -0.09483985 -0.7091142
-0.14388333 -0.13025022 -0.13908353 -0.12602265 -0.060053248 -0.07012182 0.12741491 0.040048834
0.20693931 0.27679572 -0.122341424 0.019977318 0.1349028 0.011961412 0.097307116 -0.10361846
0.20222773 -0.27641934 0.09841015 0.22014174 0.022581905 -0.24192315 0.24277401 -0.29601625
-0.025747644 0.19679439 -0.18193541 0.093955785 -0.27243495 0.024986595 0.09058519 0.014647982
-0.7816383 -0.53164303 -0.48695943 -0.5293738 -0.14310075 -0.3177678 0.06564233 0.21661822
-0.18615124 1.3645717 -0.3655658 -1.3366499 0.2165726 0.26078793 0.17518684 0.19642173
0.2591106 0.1839465 0.10607679 0.112395585 -0.32453334 0.06936658 0.5722723 0.045694854
-0.9924669 1.3322004 -0.3651258 -0.2646844 -0.11231196 -1.679676 -0.20754263 -0.98253745
00000000: 8756 70bf aed9 26bf c7db 1fbf 4122 29bf
00000010: 74f9 d7be 1bde 96be 6f48 af3d 4ac5 7b3e
00000020: bedd c9be 178b a63f 9f84 1fbf 3ffe a5bf
00000030: ffd4 a6bd 7179 0f3e bbf5 893e a2cc d23a
00000040: af7f a83e 7314 6f3e 95d3 27be 875f a53e
00000050: b1e3 b1be 8565 1d3e ce17 053f f27a bb3e
00000060: 252b 69bf 8687 a93f 7641 c0be ce3e bdbe
00000070: 49a8 29bc 794f d9bf 6bcc 8fbe 78e2 8cbf
00000080: 46ee 06bf 6200 a9bd 7622 17be 44cc aabd
00000090: 590b d63e 84da 9bbe 5609 313e 271c 793d
000000a0: ddfa 293e a9c0 1ebf be37 bcbd aa88 2abf
000000b0: 1b13 6fbe b286 c8be 88e0 d63e a7b2 90bf
000000c0: 07c4 ad3d 38e7 5ebf 85d9 113f a9fb 63be
000000d0: 2f1b b2bc 12d7 df3e d49e ad3e 83b2 14bd
000000e0: dca7 75be d321 9ebe 742a 46be a7a4 983c
000000f0: d181 3fbf 2f16 33bf 653b c2bd 8288 35bf
00000100: 2756 13be 5060 05be ea6b 0ebe 150c 01be
00000110: 65fa 75bd 079c 8fbd 0e79 023e 3f0a 243d
00000120: e6e7 533e 2bb8 8d3e 248e fabd 79a7 a33c
00000130: f623 0a3e ccf9 433c f448 c73d ea35 d4bd
00000140: c914 4f3e d686 8dbe 438b c93d d66c 613e
00000150: b0fd b83c b4ba 77be c099 783e 718f 97be
00000160: b9ec d2bc 7884 493e 474d 3abe e46b c03d
00000170: 987c 8bbe b0b0 cc3c ba84 b93d 17fe 6f3c
00000180: 7319 48bf c219 08bf bf52 f9be 0b85 07bf
00000190: 0189 12be 76b2 a2be 7c6f 863d 2bd1 5d3e
000001a0: 6e9e 3ebe 49aa ae3f 712b bbbe 5817 abbf
000001b0: 35c5 5d3e ff85 853e 2e64 333e c722 493e
000001c0: 25aa 843e 795c 3c3e ca3e d93d a82f e63d
000001d0: 3c29 a6be 1110 8e3d 7080 123f 872a 3b3d
000001e0: 5012 7ebf 8b85 aa3f c5f1 babe b784 87be
000001f0: d003 e6bd a0ff d6bf 0e86 54be 9387 7bbf

lstm.bias_hh_l0 f4 [128]
-0.6632531 -0.42576405 -0.56400657 -0.49264446 -0.31284583 -0.47959235 0.06842379 -0.075323455
-0.4300417 1.4515452 -0.52849686 -1.482359 -0.16452715 0.22930692 0.2935043 0.14389376
0.22884151 0.06257112 -0.08492309 0.30410576 -0.3527407 -0.035786364 0.307768 0.20274939
-0.74632794 1.1298927 -0.3286912 -0.42054367 0.09584256 -1.5969994 -0.35466304 -0.7715467
-0.44468668 -0.19135293 -0.12138325 -0.37748832 0.1837608 -0.26421466 -0.07363243 0.28164548
0.14248367 -0.8442993 0.023254 -0.7493371 -0.12032713 -0.67000526 0.5717439 -1.0217272
0.25909743 -0.66535336 0.58816725 -0.28433892 0.05830836 0.4620087 0.069694415 -0.058299303
-0.43911368 -0.2199039 -0.15433113 0.09406361 -0.93799764 -0.6658288 -0.1976897 -0.70205116
-0.15060891 -0.27128482 0.12483555 -0.069420695 -0.096780725 -0.19370471 0.27823287 0.3533852
0.23464742 0.24432921 -0.083658494 -0.12331816 0.16376078 0.35483843 0.23364979 -0.36229545
0.1367735 -0.14367445 -0.07424544 0.24320059 0.16834612 -0.2611528 0.18148357 -0.16447797
-0.17934497 0.30813277 -0.40406564 0.011625282 -0.2268337 -0.07697184 0.27486902 0.057178847
-0.91083825 -0.3684594 -0.49059063 -0.6519256 0.041529424 -0.32913962 -0.068123005 0.08109378
-0.29043448 1.47663 -0.56694144 -1.1880184 0.25470424 0.08948456 0.09416054 0.26553068
0.31049988 0.11740407 -0.19361329 0.14121039 -0.32992816 -0.020116068 0.6523507 0.25352156
-0.8892571 1.307932 -0.44801393 -0.015274381 0.07909723 -1.6575845 -0.28891775 -0.9692654
00000000: f5ca 29bf bffd d9be bc62 10bf e53b fcbe
00000010: 542d a0be 218d f5be c621 8c3d 2f43 9abd
00000020: 6d2e dcbe 3ccc b93f 924b 07bf f1bd bdbf
00000030: ce79 28be 6fcf 6a3e 3246 963e e358 133e
00000040: 6e55 6a3e 4a25 803d 28ec adbd c0b3 9b3e
00000050: 6e9a b4be b994 12bd c493 9d3e 899d 4f3e
00000060: 590f 3fbf 53a0 903f 374a a8be 8051 d7be
00000070: 1b49 c43d 7a6a ccbf 6596 b5be 1684 45bf
00000080: f9ad e3be 06f2 43be c897 f8bd 2646 c1be
00000090: cb2b 3c3e 2547 87be 99cc 96bd d633 903e
000000a0: 3de7 113e 0024 58bf 2c7f be3c 8ed4 3fbf
000000b0: 126e f6bd 7785 2bbf cf5d 123f f5c7 82bf
000000c0: 6ba8 843e 9954 2abf 2192 163f df94 91be
000000d0: bfd4 6e3d 688c ec3e f2bb 8e3d 40cb 6ebd
000000e0: 82d3 e0be 7d2e 61be fb08 1ebe 6ca4 c03d
000000f0: 9d20 70bf c273 2abf 2b6f 4abe a0b9 33bf
00000100: 3939 1abe d8e5 8abe c8a9 ff3d 702c 8ebd
00000110: f934 c6bd 875a 46be 8a74 8e3e e8ee b43e
00000120: 6a47 703e 7031 7a3e 2555 abbd 3b8e fcbd
00000130: e8b0 273e 62ad b53e e441 6f3e ca7e b9be
00000140: 5a0e 0c3e 651f 13be fe0d 98bd 9309 793e
00000150: ed62 2c3e d2b5 85be d4d6 393e ea6c 28be
00000160: 35a6 37be 94c3 9d3e b1e1 cebe f777 3e3c
00000170: 1847 68be 69a3 9dbd a2bb 8c3e 5e34 6a3d
00000180: b22c 69bf b6a6 bcbe b22e fbbe 99e4 26bf
00000190: c21a 2a3d fd84 a8be 1384 8bbd 7f14 a63d
000001a0: d4b3 94be 3602 bd3f 1323 11bf fd10 98bf
000001b0: 9868 823e ae43 b73d 3ed7 c03d a3f3 873e
000001c0: d7f9 9e3e 8c71 f03d 9042 46be 7599 103e
000001d0: 58ec a8be 74ca a4bc 7500 273f 94cd 813e
000001e0: 5aa6 63bf 516a a73f 1562 e5be 6641 7abc
000001f0: bbfd a13d bb2b d4bf 07ed 93be c721 78bf

fc.0.weight f4 [64, 33]
-0.056279946 0.024738725 0.004330259 0.02232123 0.055440005 0.18948801 0.1917869 -0.05936512
0.13260494 -0.026543958 0.0092711765 0.073925 0.12894958 0.13261077 -0.06442492 -0.14302216
0.1124724 -0.05375298 0.19876882 0.04359777 -0.057518985 0.14097661 0.099853374 0.06063337
-0.23672819 0.020729752 0.19914377 -0.031929452 -0.093668394 0.00057751907 -0.18349619 0.06397294
-0.13091055 -0.2808853 0.06724563 0.07969814 0.6708796 0.41360903 -0.5972844 -0.35321242
-0.42893127 -0.5693177 0.078427665 -0.20083095 -0.2739322 -0.3258087 -0.055457678 -0.47120222
-0.2965178 0.10944577 -0.07985492 0.07199 -0.3064418 0.58156866 -0.030668003 0.13317388
-0.20394367 0.48169124 0.60740554 -0.044725344 -0.11746675 0.4118698 0.043744694 -0.05775356
0.3904207 0.10629577 -0.09282476 -0.31587762 -0.471424 0.058483325 0.1675322 0.3714246
-0.2230484 0.09921561 0.091714755 -0.25002286 -0.09696821 -0.13065909 -0.36189952 -0.15800285
0.12413517 -0.18704039 0.72671217 0.10794577 -0.28163838 -0.2268652 0.03416592 0.5394806
0.47056025 -0.448428 -0.047195803 -0.20311806 0.16735232 -0.07335143 0.15516476 -0.120485015
0.3284675 -0.1110136 -0.26417425 -0.006083009 -0.19169319 -0.21703619 -0.059474073 0.06473671
0.043625135 0.12502211 0.1487592 -0.05993623 0.29296455 0.16614302 0.22373979 0.0813488
0.25654325 -0.067310795 0.1256944 0.11731342 -0.09564335 -0.10186062 0.025691452 0.1325914
0.1579802 0.10492278 -0.08827759 -0.20080678 0.16024049 0.26898056 0.030088274 0.05052396
-0.009554872 -0.025868589 0.059637513 -0.043843556 0.03982515 -0.2949257 0.17455617 0.010646385
-0.13468939 -0.006240009 -0.102519885 0.096163124 0.04767009 -0.006463995 0.012422402 -0.069383904
-0.0926815 0.33045986 -0.10574186 -0.17653379 0.09788362 0.058355913 0.059768233 -0.20140399
0.046433073 0.13461304 0.04386608 0.109655045 0.017796861 -0.04955211 0.081609294 0.088900276
0.07891171 0.008208845 -0.036464576 -0.101794906 -0.14519057 -0.18670055 -0.8764219 -0.15591305
-0.031343523 0.073488235 0.032810833 0.15286402 0.29879797 -0.037283808 0.37930757 -0.5092257
-0.48183006 0.35339564 0.6451117 0.21501619 -0.96449107 0.39979604 0.06513519 -0.0666425
0.3306053 -0.0059117586 0.16284797 1.0318224 -0.7506731 0.4222121 0.54401314 -0.47928426
-0.27970156 -1.1706463 0.057825137 0.038771085 0.015222429 0.31797606 -0.37232083 -0.019621013
0.04835602 0.5677799 -0.23099679 0.21170807 -0.12427766 -0.026910732 0.04127659 0.0918719
-0.22286484 0.04741482 0.10225469 -0.057757307 0.08857596 -0.32985184 0.09157439 -0.12636736
0.008327905 0.15974236 -0.08554409 -0.05725939 0.56165993 -0.46027142 0.22590491 -0.11714026
-0.12281485 -0.27385023 0.37154773 -0.081732616 0.116553836 0.24042125 -0.51553106 -0.47671726
-0.90151453 0.7526343 0.40165576 -0.6190701 0.556103 -0.07409391 0.32657763 -0.16293348
0.15998478 0.342114 0.19088553 0.06254631 -0.104331106 0.16949484 -0.27518868 0.28329027
-0.70950466 -0.5922546 0.54326165 -0.31936473 0.38343343 0.47032484 -0.91012865 0.30633098
00000000: cd85 66bd dea8 ca3c d8e4 8d3b 03db b63c
00000010: 0f15 633d 2509 423e c963 443e d728 73bd
00000020: 97c9 073e b772 d9bc 22e6 173c fe65 973d
00000030: 5c0b 043e 1ecb 073e 36f1 83bd 6774 12be
00000040: ee57 e63d 162c 5cbd 0e8a 4b3e 9393 323d
00000050: 0799 6bbd 2c5c 103e ed7f cc3d b25a 783d
00000060: e068 72be 71d1 a93c 58ec 4b3e 75c8 02bd
00000070: 37d5 bfbd a664 173a 6de6 3bbe 3f04 833d
00000080: 6a0d 06be 33d0 8fbe 14b8 893d c738 a33d
00000090: c4be 2b3f 90c4 d33e a1e7 18bf 42d8 b4be
000000a0: e19c dbbe cebe 11bf af9e a03d a1a6 4dbe
000000b0: d740 8cbe 66d0 a6be 9727 63bd 6b41 f1be
000000c0: 2ed1 97be 1b25 e03d fa8a a3bd 7e6f 933d
000000d0: f1e5 9cbe afe1 143f 773b fbbc bc5e 083e
000000e0: 9cd6 50be 3ca0 f63e ee7e 1b3f ec31 37bd
000000f0: 6892 f0bd 99e0 d23e a32d 333d ff8e 6cbd
00000100: 39e5 c73e 99b1 d93d e81a bebd b6ba a1be
00000110: 7d5e f1be 368c 6f3d 908d 2b3e 5d2b be3e
00000120: cd66 64be 8e31 cb3d f2d4 bb3d ff02 80be
00000130: 4597 c6bd 7fcb 05be e54a b9be 80cb 21be
00000140: 943a fe3d 8487 3fbe cf09 3a3f ac12 dd3d
00000150: e832 90be 5a4f 68be 90f1 0b3d 671b 0a3f
00000160: 46ed f03e 5b98 e5be 6350 41bd 2efe 4fbe
00000170: 685e 2b3e 4639 96bd 83e3 1e3e d9c0 f6bd
00000180: e42c a83e 195b e3bd d941 87be fa53 c7bb
00000190: 384b 44be bc3e 5ebe 169b 73bd ae94 843d
000001a0: 45b0 323d cc05 003e 5554 183e b17f 75bd
000001b0: 73ff 953e 6521 2a3e 0b1c 653e 339a a63d
000001c0: a359 833e 3eda 89bd 08b6 003e 0542 f03d
000001d0: a9e0 c3bd 4d9c d0bd e176 d23c 0ac6 073e
000001e0: 90c5 213e c1e1 d63d e2ca b4bd 4ba0 4dbe
000001f0: 1516 243e d2b7 893e af7b f63c 36f2 4e3d
00000200: 0a8c 1cbc 5dea d3bc 7746 743d 4d95 33bd
00000210: b21f 233d 8000 97be dabe 323e 2d6e 2e3c
00000220: 04ec 09be fd78 ccbb f2f5 d1bd 2cf1 c43d
00000230: b641 433d eccf d3bb 5587 4b3c 2619 8ebd
00000240: cccf bdbd 0932 a93e 308f d8bd 46c5 34be
00000250: 3577 c83d 9c06 6f3d 89cf 743d d93c 4ebe
00000260: 9b30 3e3d 00d8 093e ebac 333d d392 e03d
00000270: b9ca 913c 27f7 4abd c622 a73d 5911 b63d
00000280: 769c a13d 647e 063c e15b 15bd d979 d0bd
00000290: d6ac 14be 6e2e 3fbe 305d 60bf aca7 1fbe
000002a0: 1162 00bd 0081 963d a764 063d 6388 1c3e
000002b0: 0cfc 983e e8b6 18bd 9a34 c23e 9e5c 02bf
000002c0: 6eb2 f6be 46f0 b43e 0a26 253f 342d 5c3e
000002d0: e3e8 76bf 11b2 cc3e 9965 853d dd7b 88bd
000002e0: 1945 a93e 6db7 c1bb 9ec1 263e c212 843f
000002f0: 1d2c 40bf 2f2c d83e 7244 0b3f bf64 f5be
00000300: 0b35 8fbe bdd7 95bf 0dda 6c3d 6ece 1e3d
00000310: 7f67 793c c2cd a23e d6a0 bebe 3fbc a0bc
00000320: f610 463d 065a 113f 6c8a 6cbe 00ca 583e
00000330: 4985 febd e573 dcbc a411 293d 5627 bc3d
00000340: ae36 64be 0b36 423d e86a d13d ed92 6cbd
00000350: 5067 b53d 57e2 a8be 5b8b bb3d 7266 01be
00000360: c471 083c 8093 233e bd31 afbd d288 6abd
00000370: f2c8 0f3f b2a8 ebbe 9e53 673e 3ce7 efbd
00000380: 5a86 fbbd 1936 8cbe 813b be3e 6e63 a7bd
00000390: c7b3 ee3d fd30 763e d8f9 03bf 4914 f4be
000003a0: a8c9 66bf a4ac 403f d3a5 cd3e 617b 1ebf
000003b0: c45c 0e3f 8cbe 97bd 2f35 a73e 09d8 26be
000003c0: 0dd3 233e 9129 af3e 7f77 433e 4818 803d
000003d0: 8cab d5bd 0e90 2d3e 88e5 8cbe 6c0b 913e
000003e0: 19a2 35bf ff9d 17bf 3213 0b3f c683 a3be
000003f0: 6351 c43e 6bce f03e 31fe 68bf 6ad7 9c3e

fc.0.bias f4 [64]
-0.06604302 -0.19730711 -0.09402901 -0.20704752 -0.07232543 -0.23226763 -0.23013404 -0.29687345
-0.3372723 -0.17287225 -0.035385635 -0.48754045 -0.3012949 0.08765563 -0.11478833 -0.13080971
0.20720741 -0.13324447 -0.049860105 -0.16338767 -0.31737006 -0.15836582 -0.14197771 -0.08637097
0.3033032 -0.23485361 0.0424118 -0.14807944 -0.20178501 -0.2141769 0.33490497 0.19135383
-0.23302291 0.009835178 -0.3595864 -0.1615883 0.19430822 -0.16591023 -0.14968695 -0.14728446
-0.107018694 -0.08410417 -0.160753 -0.20586883 -0.1840398 0.2561494 -0.16070877 -0.24660389
-0.40350002 -0.23359308 -0.16613756 -0.08122225 -0.23678964 -0.02276828 0.33046266 -0.08097817
-0.014593533 -0.26888955 -0.19968227 -0.23464732 -0.13578063 0.025949297 -0.23248476 0.16500114
00000000: 9041 87bd e00a 4abe 4892 c0bd 4404 54be
00000010: 5b1f 94bd 91d7 6dbe 42a8 6bbe ccff 97be
00000020: f4ae acbe 6c05 31be 87f0 10bd e79e f9be
00000030: 5343 9abe cc84 b33d 2516 ebbd fbf2 05be
00000040: 2e2e 543e 3d71 08be 1c3a 4cbd 194f 27be
00000050: 547e a2be a62a 22be 9b62 11be 43e3 b0bd
00000060: 8f4a 9b3e 777d 70be ffb7 2d3d 23a2 17be
00000070: bba0 4ebe 3051 5bbe aa78 ab3e 42f2 433e
00000080: 8f9d 6ebe ba23 213c b51b b8be 6777 25be
00000090: bcf8 463e 5fe4 29be 8947 19be bdd1 16be
000000a0: 9e2c dbbd cf3e acbd 6f9c 24be 47cf 52be
000000b0: ee74 3cbe 0426 833e d790 24be bb85 7cbe
000000c0: 8e97 cebe 0633 6fbe f71f 2abe da57 a6bd
000000d0: fc78 72be 8b84 babc 6732 a93e e2d7 a5bd
000000e0: b719 6fbc e4ab 89be 8279 4cbe 6347 70be
000000f0: 140a 0bbe 9f93 d43c 7c10 6ebe 0ff6 283e

fc.2.weight f4 [32, 64]
0.10186301 0.025216501 -0.33549646 0.09189549 -0.043894082 0.41876552 0.25274035 -0.17568946
0.19403274 0.11397099 0.37370875 0.43711203 -1.1984652 0.05017621 0.08806825 -0.0011529392
0.07642811 0.015904224 -0.23575301 0.26521194 -0.20722403 -0.0021157668 -0.061833642 0.049296767
0.017858202 -0.08294034 0.32556078 -0.045520984 -0.106627285 0.080470785 0.06108451 -0.24996449
0.10873336 -0.29454684 1.1641513 -0.087150544 -0.43191624 -0.055909246 -0.061475657 0.15070866
-0.0004282649 -0.3672348 0.47546867 0.07143409 0.04249736 0.052679934 0.013262536 0.019441424
-1.3038218 0.12610094 0.2335146 0.07409378 -0.056523297 0.02591603 0.046926167 -1.146379
0.19835864 -0.08534505 -0.0072269407 -0.11731863 -0.027801305 0.20662309 -0.5497111 -0.15742537
-0.0417154 0.011115074 0.013668731 -0.015254512 -0.09807992 -0.041375488 0.055823594 -0.10457648
-0.07911782 0.11485863 -0.027563944 0.071493626 -0.078990385 -0.04905656 0.04113102 -0.018823013
-0.0025286973 0.12349188 0.12092681 -0.08145113 -0.014473736 -0.06351796 0.061245203 -0.079179004
0.05735977 0.10761805 -0.09598562 -0.10978371 0.0752009 -0.07179278 -0.099884346 -0.11173618
0.011928946 -0.011669695 -0.03520964 0.059751585 0.015803084 0.029519796 0.114137605 0.11204636
0.06595604 -0.053014338 -0.041282445 0.10469906 0.019907027 0.026534423 -0.1247845 -0.08253142
0.08738996 0.0014563203 -0.09583798 0.102887526 -0.08738299 -0.107867494 -0.030112118 -0.0076366514
0.05949396 -0.0708397 -0.10749696 0.05737537 0.08733128 0.069717005 -0.022984251 -0.04477012
-0.060283314 -0.00014287775 -0.02186232 -0.038489725 -0.0991216 0.09768276 -0.007892307 -0.29746193
-0.0066589294 -0.07557834 -0.2203374 -0.04265162 0.006351517 -0.0053657396 0.03694308 0.11582087
0.03586916 -0.034362588 0.053301435 0.0029471237 0.0051390557 0.064450316 0.06831744 -0.120370254
-0.14418118 -0.03385854 -0.16015999 -0.039673958 0.017306121 -0.12089815 -0.0013323158 -0.01912052
-0.24222738 0.05555809 0.049669456 -0.04979298 0.05948958 0.10538153 -0.085435525 0.009290471
0.04221154 -0.035182342 -0.136603 0.054480232 -0.035014972 -0.10604703 -0.10312573 0.11316511
0.26753783 0.083222754 -0.07947845 0.10879712 0.05244593 -0.09830455 -0.013341039 -0.048262943
-0.0313242 0.024649518 0.03953741 -0.013933478 -0.10336756 0.077024356 0.015563974 0.02639158
0.0031516848 0.20566763 0.074562505 -0.03450334 0.0345532 0.18862644 -0.23170772 -0.49090183
-0.3418672 0.05224833 -0.3466774 0.14894158 -0.25380135 0.114954785 -0.008482459 0.08250634
0.41003188 0.08601699 0.2658076 0.1368136 -0.05171346 0.04606891 0.025549905 -0.034300566
0.32020363 -0.053273164 -0.23924968 -0.04454823 0.06431016 0.054963715 0.21028644 0.10442359
0.14534391 -0.07078076 -0.035266615 0.031595733 -0.031876817 0.0040324656 -0.03181615 0.08183898
-0.018712116 -0.113726236 0.00027566866 0.045222715 -0.02552526 0.27678072 -0.026090154 0.03023637
0.19139211 0.089829765 0.20073485 0.04680772 -0.05931448 0.21538126 0.34524846 0.010229371
0.16019815 -0.043062896 0.1235469 0.16522929 -0.0049542338 0.27041858 0.45269835 0.10256573
00000000: 8e9d d03d d692 ce3c 31c6 abbe b433 bc3d
00000010: 48ca 33bd 6f68 d63e 2f67 813e f0e7 33be
00000020: 85b0 463e 9f69 e93d c156 bf3e 26cd df3e
00000030: 4f67 99bf 9285 4d3d 205d b43d 381e 97ba
00000040: 5786 9c3d 9349 823c 3d69 71be dcc9 873e
00000050: 8932 54be ada8 0abb 4645 7dbd 68eb 493d
00000060: 5d4b 923c a0dc a9bd e7af a63e 3674 3abd
00000070: 685f dabd decd a43d c033 7a3d b1f6 7fbe
00000080: 99af de3d d8ce 96be e902 953f fc7b b2bd
00000090: 2024 ddbe 1801 65bd e6cd 7bbd 5f53 1a3e
000000a0: be88 e0b9 3306 bcbe a170 f33e 094c 923d
000000b0: b611 2e3d eac6 573d 1c4b 593c 9f43 9f3c
000000c0: a2e3 a6bf 9b20 013e 741e 6f3e 7bbe 973d
000000d0: f984 67bd db4d d43c a735 403d 8cbc 92bf
000000e0: 871e 4b3e 63c9 aebd f9cf ecbb c044 f0bd
000000f0: 90bf e3bc 0195 533e deb9 0cbf 1e34 21be
00000100: c4dd 2abd 001c 363c d0f2 5f3c 10ee 79bc
00000110: 20de c8bd 5879 29bd 48a7 643d 322c d6bd
00000120: 8608 a2bd 003b eb3d c8cd e1bc 406b 923d
00000130: b6c5 a1bd 88ef 48bd 0079 283d b832 9abc
00000140: 80b8 25bb 50e9 fc3d 7aa8 f73d dacf a6bd
00000150: 4023 6dbc b415 82bd 40dc 7a3d 9a28 a2bd
00000160: 14f2 6a3d da66 dc3d 1c94 c4bd 48d6 e0bd
00000170: ee02 9a3d 1808 93bd 2a90 ccbd f0d5 e4bd
00000180: a071 433c 4032 3fbc fc37 10bd 14be 743d
00000190: 7875 813c 80d3 f13c fac0 e93d 9078 e53d
000001a0: f613 873d 9025 59bd c817 29bd 766c d63d
000001b0: 1014 a33c b85e d93c 048f ffbd 3c06 a9bd
000001c0: 82f9 b23d 00e2 be3a b446 c4bd b2b6 d23d
000001d0: daf5 b2bd a2e9 dcbd b0ad f6bc e03c fabb
000001e0: f0af 733d 6814 91bd 5e27 dcbd 7002 6b3d
000001f0: beda b23d cac7 8e3d 7849 bcbc e060 37bd
00000200: a3eb 76bd 74d1 15b9 9c18 b3bc 67a7 1dbd
00000210: 4400 cbbd e60d c83d bc4e 01bc ee4c 98be
00000220: 2633 dabb d1c8 9abd 21a0 61be 77b3 2ebd
00000230: 6320 d03b 16d3 afbb a151 173d 7e33 ed3d
00000240: 8aeb 123d c9bf 0cbd 9b52 5a3d 8824 413b
00000250: 8665 a83b 87fe 833d 04ea 8b3d ae84 f6bd
00000260: 3ba4 13be 41af 0abd fb00 24be 2981 22bd
00000270: 91c5 8d3c 7399 f7bd 1aa1 aeba a3a2 9cbc
00000280: 740a 78be e190 633d 3372 4b3d b9f3 4bbd
00000290: 59ab 733d 46d2 d73d d2f8 aebd 0f37 183c
000002a0: 02e6 2c3d 5c1b 10bd a8e1 0bbe aa26 5f3d
000002b0: dc6b 0fbd 2f2f d9bd 9533 d3bd 1cc3 e73d
000002c0: b8fa 883e b170 aa3d 99c5 a2bd 06d1 de3d
000002d0: 8bd1 563d e553 c9bd 6094 5abc 5daf 45bd
000002e0: ce4d 00bd c9ed c93c fbf1 213d 3e49 64bc
000002f0: 5fb2 d3bd f2be 9d3d 0a00 7f3c 2833 d83c
00000300: 7f8c 4e3b 899a 523e 3ab4 983d 6053 0dbd
00000310: a887 0d3d 4a27 413e ca44 6dbe 7c57 fbbe
00000320: 3809 afbe 5802 563d b37f b1be 2484 183e
00000330: 40f2 81be 6a6d eb3d 03fa 0abc 16f9 a83d
00000340: b3ef d13e ad29 b03d ef17 883e dd18 0c3e
00000350: 7ed1 53bd c1b2 3c3d 094e d13c c07e 0cbd
00000360: bbf1 a33e f634 5abd defd 74be 3478 36bd
00000370: 0cb5 833d a221 613d 5455 573e 09dc d53d
00000380: 09d5 143e 81f5 90bd ba73 10bd 876a 013d
00000390: 4491 02bd c622 843b a751 02bd 329b a73d
000003a0: 274a 99bc 4de9 e8bd 9f87 9039 743b 393d
000003b0: 5a1a d1bc 34b6 8d3e 05bb d5bc 44b2 f73c
000003c0: 4bfc 433e abf8 b73d 708d 4d3e 74b9 3f3d
000003d0: bdf3 72bd e88c 5c3e 68c4 b03e 1799 273c
000003e0: fc0a 243e b862 30bd 2806 fd3d de31 293e
000003f0: 2057 a2bb 4e74 8a3e 14c8 e73e fb0d d23d

fc.2.bias f4 [32]
0.25853285 -0.11120395 -0.1686262 0.34263185 -0.12735827 -0.16296625 -0.082129724 -0.05309346
-0.0024868082 -0.13188352 -0.10418569 -0.058910795 -0.023339741 -0.16788895 -0.035571113 -0.06774218
-0.12852643 0.103776984 -0.099552274 -0.009195199 -0.07898051 -0.020259531 -0.09966733 -0.10224489
-0.13744207 -0.12578739 0.04717843 -0.1529313 -0.10645826 0.21286742 0.14179994 -0.114037834
00000000: 6b5e 843e e6be e3bd 59ac 2cbe 716d af3e
00000010: 356a 02be a0e0 26be a133 a8bd 8778 59bd
00000020: b8f9 22bb 790c 07be 4f5f d5bd 724c 71bd
00000030: fc32 bfbc 15eb 2bbe 04b3 11bd 69bc 8abd
00000040: 6f9c 03be 0789 d43d 10e2 cbbd 76a7 16bc
00000050: 89c0 a1bd 51f7 a5bc 631e ccbd c565 d1bd
00000060: 9dbd 0cbe 69ce 00be 2b3e 413d 069a 1cbe
00000070: ca06 dabd ebf9 593e 0134 113e ab8c e9bd

fc.4.weight f4 [1, 32]
-0.22647338 -0.17614046 0.0313235 0.17938243 -0.11880768 0.004498205 -0.0012374959 0.031023921
0.020242475 0.045375496 -0.022832405 -0.0071860324 -0.0027249707 0.018431766 0.034055784 -0.023683006
0.027236441 -0.018636104 -0.018949987 0.0051674736 0.006998758 -0.024902811 -0.25205663 0.0053230724
-0.026372703 -0.009416156 -0.006870709 -0.105236776 -0.024607308 0.013048894 -0.15962781 -0.056131374
00000000: a3e8 67be 2a5e 34be 124d 003d 07b0 373e
00000010: 7151 f3bd ae65 933b 7933 a2ba e125 fe3c
00000020: 8cd3 a53c a8db 393d 060b bbbc cf78 ebbb
00000030: 6c95 32bb 37fe 963c 147e 0b3d dd02 c2bc
00000040: f51e df3c beaa 98bc 013d 9bbc e953 a93b
00000050: d655 e53b fb00 ccbc 910d 81be 2b6d ae3b
00000060: 910b d8bc 3946 1abc af23 e1bb 6186 d7bd
00000070: 4495 c9bc 07cb 553c 7975 23be 03ea 65bd
