lstm_reg.pt (torch, 39198 bytes, 9 tensors)

lstm.weight_ih_l0 f4 [128, 1]
0	0x3e32a3aa	0.17445245
1	0xbda52ba1	-0.08064962
2	0x3e4a064d	0.19728966
3	0x3f2dd215	0.67898685
4	0xbe75a6eb	-0.23989455
5	0xbddb6539	-0.10712666
6	0x3ea51386	0.32241458
7	0x3dd6f053	0.10495057
8	0xbe2c1d58	-0.16808069
9	0x3e74c7ea	0.23904386
10	0xbd24fc78	-0.040279835
11	0x3e449f3e	0.19201371
12	0xbd2b2fc0	-0.041793585
13	0xbd8f63ef	-0.07001483
14	0x3d2c0cbf	0.042004343
15	0x3e379549	0.17928042
16	0xbce58af1	-0.028020354
17	0xbe53e358	-0.20692194
18	0xbe01df2f	-0.12682794
19	0x3e52ca0c	0.20584887
20	0xbdb412ab	-0.08792623
21	0x3cccae96	0.024985593
22	0xbefdb89b	-0.49554905
23	0xbe6034d9	-0.2189516
24	0xbd92546b	-0.07145008
25	0x3e117410	0.1420443
26	0x3ea0c952	0.31403595
27	0x3dc45a8b	0.09587582
28	0x3e814d11	0.2525411
29	0x3eb4343e	0.35196108
30	0x3e40031a	0.18751183
31	0xbd0995ef	-0.033590253
32	0x3e945888	0.28973794
33	0x3e62eabb	0.22159855
34	0xbe5da81e	-0.21646163
35	0xbd8e55e0	-0.06949973
36	0xbe0d6ced	-0.13811083
37	0xbea46bda	-0.32113534
38	0x3d5290fc	0.0514078
39	0xbd97e0e0	-0.074159384
40	0xbd3cdf60	-0.046111465
41	0x3e3fdda1	0.18736888
42	0x3c52a16a	0.012855867
43	0x3e68cfc1	0.22735502
44	0x3e324d63	0.17412333
45	0x3e2a0ba2	0.16606
46	0x3b17b511	0.0023148695
47	0x3f03c039	0.51465183
48	0x3e092760	0.13393927
49	0xbcc3043b	-0.023805728
50	0x3b36e410	0.0027906932
51	0xbdfa87ec	-0.12232956
52	0x3e5b75c5	0.21431644
53	0x3d158f7c	0.03651379
54	0xbdacb7b6	-0.084334776
55	0x3d8d8e4d	0.06911907
56	0x3d016c48	0.031597406
57	0xbdc5a64a	-0.09650858
58	0x3ea40704	0.32036602
59	0xbdbef2df	-0.09323668
60	0x3e4b6214	0.19861633
61	0x3ea12ca4	0.3147937
62	0x3e8f5cf1	0.28000596
63	0xbe4f3d88	-0.20238316
64	0x3df9aaa0	0.12190747
65	0x3e78d92c	0.24301594
66	0xbe73075b	-0.23733275
67	0x3e9c5e53	0.30540714
68	0x3c90b4c4	0.01766432
69	0xbe3c7424	-0.18403679
70	0x3e536093	0.20642309
71	0xbe5ad8f0	-0.21371818
72	0xbcb574f7	-0.0221505
73	0x3e925af8	0.2858503
74	0xbe636b9e	-0.22209021
75	0x3e6ad058	0.2293104
76	0x3d3274f4	0.043568566
77	0xbe8b92cf	-0.27260444
78	0xbd39b01b	-0.045333963
79	0x3df23aa0	0.11827588
80	0x3e5cb8b8	0.2155484
81	0xbd3fe597	-0.046849813
82	0xbd74b17d	-0.05973958
83	0x3ddcadcc	0.107753366
84	0x3d513c96	0.05108317
85	0xbe6014e7	-0.21882974
86	0x3d88b798	0.06675643
87	0xbd5aabaa	-0.053386368
88	0x3dd5fd4f	0.104487054
89	0x3e8d481d	0.2759408
90	0xbe660738	-0.22463691
91	0x3e5c5b07	0.21519099
92	0x3e7fd1fa	0.24982443
93	0x3e9952df	0.29946038
94	0x3c5d1b82	0.013495328
95	0x3e6359b0	0.22202182
96	0x3eae37dc	0.34026992
97	0x3e3c5cfc	0.18394846
98	0x3e2ea3cf	0.17054676
99	0x3ef1ae0f	0.4720311
100	0x3d055109	0.032547984
101	0xbc9220c1	-0.017837884
102	0x3e88f178	0.26746726
103	0xbdc9306f	-0.09823691
104	0xbc5324a4	-0.012887154
105	0x3e32bdb2	0.17455176
106	0x3d96162c	0.07328448
107	0x3ebf9a62	0.37422472
108	0xbddb8927	-0.10719519
109	0xbda685dc	-0.081310004
110	0xbdd08e34	-0.10183373
111	0x3e46ab50	0.19401288
112	0xbc5bbeb0	-0.013412163
113	0x3d86e8b3	0.065873526
114	0x3d51d79f	0.051231023
115	0x3dc3650d	0.09540758
116	0x3e1bb475	0.15205558
117	0x3cc02a21	0.023457589
118	0xbe549287	-0.20759021
119	0xbe69a929	-0.22818436
120	0xbeb03e33	-0.34422454
121	0xbdd81cda	-0.10552378
122	0x3e8db45c	0.27676666
123	0x3e99da9a	0.30049592
124	0x3d86a463	0.06574323
125	0x3ece1a8f	0.40254638
126	0x3e127c5c	0.14305252
127	0xbe4e4249	-0.20142473

lstm.weight_hh_l0 f4 [128, 32]
0	0x3f244cac	0.6417949
1	0xbe371fdd	-0.17883249
2	0xbe3fca49	-0.1872951
3	0x3f41772a	0.75572455
4	0xbe4fb38b	-0.20283334
5	0xbe02fe05	-0.12792213
6	0xbaa87b09	-0.001285405
7	0x3ca0d152	0.019631062
8	0xbf0875d5	-0.533048
9	0xbca8959d	-0.020579154
10	0x3d1e41d2	0.03863699
11	0x3f0493e9	0.51788193
12	0x3e44d75b	0.19222777
13	0xbd058b95	-0.03260382
14	0x3e045011	0.12921168
15	0x3df8eea0	0.12154889
16	0x3d51aa02	0.051187523
17	0xbdb9a78d	-0.09065161
18	0x3b331fdd	0.0027332224
19	0x3e7943ae	0.24342224
20	0xbe964dfa	-0.29356366
21	0xbec1ed99	-0.37876585
22	0xbdee7e44	-0.11645177
23	0x3e002ca1	0.12517025
24	0xbc81fe1f	-0.015868245
25	0x3e20196b	0.15634696
26	0x3d72282b	0.05912034
27	0x3f835f0f	1.0263385
28	0xbe24c139	-0.16089334
29	0x3f15cf25	0.585192
30	0x3e985855	0.29754892
31	0x3f365445	0.71222335
32	0x3d9b779f	0.07591175
33	0xbe126f8e	-0.14300367
34	0xbe4150b4	-0.18878442
35	0x3d2d4e7a	0.04231117
36	0xbe534198	-0.20630491
37	0xbe3a0540	-0.18166065
38	0xbcc361ff	-0.02385044
39	0xbd7e8815	-0.062141497
40	0x3c8b2d6e	0.016989436
41	0x3d7059fa	0.05867956
42	0xbd965834	-0.07341042
43	0x3dfa9bae	0.12236725
44	0xbdf7de0d	-0.121029
45	0x3d0a873f	0.033820387
46	0x3dd393e5	0.10330943
47	0xbcfc008e	-0.030761983
48	0xbc6d7ad3	-0.014494616
49	0xbd39e307	-0.045382526
50	0x3e2369ec	0.15958375
51	0xbe02d6b1	-0.12777211
52	0x3dd2a2e9	0.10284979
53	0x3e241b36	0.16026005
54	0xbd654d59	-0.055981968
55	0xbdb312f7	-0.08743852
56	0xbd462418	-0.048374265
57	0x3e453dca	0.19261852
58	0x3dc22015	0.094787754
59	0x3dd3db8f	0.10344612
60	0xbe39d5fe	-0.18148038
61	0x3d667293	0.05626161
62	0xbe84e802	-0.25958258
63	0x3de2a464	0.11066511
64	0x3ddd3858	0.10801762
65	0x3e1413e9	0.1446072
66	0xbe05a87a	-0.1305255
67	0x3eceb030	0.40368795
68	0xbcd298a6	-0.025707554
69	0x3ecf34d4	0.40469992
70	0xbe618a57	-0.22025429
71	0x3d8a9740	0.0676713
72	0xbe406076	-0.18786797
73	0xbec6cd8d	-0.38828698
74	0x3e3103cc	0.17286605
75	0xbb5028db	-0.0031762633
76	0xbe345f81	-0.17614557
77	0xbe199d25	-0.15001352
78	0x3d4812ae	0.04884594
79	0x3df95064	0.121735364
80	0x3e1a78ee	0.15085194
81	0xbd403663	-0.046926867
82	0x3d0b018a	0.033937015
83	0xbd6eda15	-0.058313448
84	0x3e5353f5	0.20637496
85	0xbe46f06a	-0.19427648
86	0x3eb64b5c	0.3560437
87	0xbe99dfc6	-0.30053538
88	0x3d169535	0.03676339
89	0xbe056263	-0.13025813
90	0x3db26316	0.087103054
91	0x3cbde397	0.023179812
92	0x3e12cef5	0.1433676
93	0x3ef2759b	0.4735535
94	0x3f08b74a	0.53404677
95	0xbe31a56b	-0.17348258
96	0xbf105462	-0.5637876
97	0x3eeb02c7	0.45900556
98	0x3e9bc08f	0.30420348
99	0xbf26e5cd	-0.651944
100	0x3f420f50	0.75804615
101	0x3b2eb7ed	0.0026659921
102	0x3f027a74	0.509681
103	0x3ee1474a	0.43999702
104	0x3f868dd6	1.0512035
105	0x3ec47460	0.38370037
106	0xbf0adfeb	-0.5424792
107	0xbe2b8959	-0.16751613
108	0x3f2dd983	0.6791002
109	0xbf378749	-0.71690804
110	0x3ece265b	0.40263638
111	0xbe9ca601	-0.305954
112	0x3ed6953b	0.4191073
113	0x3f12a796	0.57286966
114	0xbe402d94	-0.18767387
115	0x3efd4d8c	0.49473226
116	0x3f328d11	0.697465
117	0x3d9dd348	0.07706314
118	0x3e5ecee0	0.21758604
119	0xbcfb043d	-0.03064167
120	0xbf153843	-0.58288974
121	0xbdbdd84f	-0.09269773
122	0xbecb73bf	-0.39736745
123	0xbf2efd81	-0.68355566
124	0x3f174aa9	0.590983
125	0xbf1d59d0	-0.6146517
126	0xbe8de9ca	-0.2771743
127	0xbe13db56	-0.14439139
128	0xbe75473e	-0.23952958
129	0xbe163838	-0.14669883
130	0x3db96c8a	0.09053905
131	0x3b07b5d4	0.0020707743
132	0x3d570192	0.052491732
133	0xbd8d8375	-0.06909839
134	0x3da8e419	0.08246631
135	0xbce9d7f9	-0.028545367
136	0xbdee5cf3	-0.116388224
137	0xbdb5ad47	-0.08870941
138	0xbdd90ce3	-0.10598161
139	0xbe7b0e74	-0.24517232
140	0x3d93b1ef	0.072116725
141	0xbde58a17	-0.11207979
142	0xba402f6f	-0.0007331287
143	0xbda96c11	-0.08272565
144	0xba8487dc	-0.001011129
145	0x3d166c85	0.036724586
146	0x3c44a620	0.012002498
147	0x3e1da333	0.15394287
148	0xbda2c651	-0.07947982
149	0xbe1cbacc	-0.15305632
150	0xbea0df7e	-0.3142051
151	0x3b890c8d	0.0041824044
152	0xbdede3ba	-0.11615701
153	0xbd0adcca	-0.033901967
154	0xbdf6c8a1	-0.12049986
155	0xbc5b6140	-0.013389885
156	0xbdb5066d	-0.08839116
157	0xbe8deeff	-0.27721402
158	0xbd8ee8fb	-0.06978031
159	0xbd1cf0d9	-0.038315628
160	0xbe689d0d	-0.2271616
161	0x3d3f00e0	0.046631694
162	0xbdabe3ef	-0.08393084
163	0x3efeed19	0.49790266
164	0xbd93765f	-0.07200312
165	0x3e485bf7	0.19566332
166	0x3e582ec5	0.21111591
167	0x3e28da17	0.16489445
168	0x3da8c945	0.08241514
169	0xbe5ef3e9	-0.21772732
170	0xbc3fdc59	-0.01171025
171	0x3dffdaf9	0.124929376
172	0x3c766d2a	0.015040675
173	0xbd6e63a2	-0.058200486
174	0xbe00696f	-0.1254022
175	0xbd974b09	-0.07387359
176	0x3d3d4e6f	0.04621738
177	0x3b20f149	0.002455788
178	0xbd167693	-0.036734175
179	0xbe5b1ceb	-0.2139775
180	0x3e4d4138	0.2004441
181	0x3d8ccc4b	0.06874903
182	0xbe42f6e5	-0.19039495
183	0xbcb19dcf	-0.021681694
184	0xbd7c6f65	-0.06162967
185	0xbb8d9b6a	-0.0043215053
186	0xbd2caa55	-0.04215463
187	0xbd89c665	-0.06727294
188	0x3eaa9092	0.33313423
189	0x3cf6bb22	0.030118529
190	0x3eebde93	0.46068248
191	0x3d31563d	0.043295134
192	0x3dff7235	0.12472955
193	0x3dc0abb0	0.09407747
194	0xba8c6ce0	-0.00107136
195	0x3ea751d0	0.32679605
196	0xbceab514	-0.028650798
197	0x3e0a585c	0.13510269
198	0x3cb02c16	0.021505397
199	0x3d9442f3	0.07239332
200	0xbde8f76f	-0.11375319
201	0x3e1f072e	0.15530083
202	0xbd62862a	-0.05530373
203	0x3e49a64f	0.19692348
204	0xbc42cfdc	-0.011890378
205	0xbea1ac3c	-0.31576717
206	0x3e323e59	0.17406596
207	0x3e6d85f6	0.23195633
208	0x3e2c90e6	0.1685215
209	0x3e95ff10	0.2929616
210	0xbe955870	-0.29169035
211	0x3d9ff976	0.07811253
212	0x3e16ea3c	0.14737791
213	0x3d561a0b	0.05227093
214	0xbcd69786	-0.026195299
215	0xbcb13b30	-0.021634668
216	0x3df27867	0.11839371
217	0x3cb45a14	0.022015609
218	0xbea27cee	-0.3173594
219	0xbd3c2701	-0.045935635
220	0x3e45ff6b	0.19335715
221	0x3eb5abc7	0.35482618
222	0x3d94d7db	0.07267734
223	0x3dabbff6	0.08386223
224	0x3e3d0eae	0.18462631
225	0xbc375fa9	-0.011192241
226	0xbc9a7204	-0.018853195
227	0x3e9ea08f	0.3098187
228	0xbdcdf060	-0.100556135
229	0xbe5cbd66	-0.21556625
230	0x3e2db142	0.1696215
231	0xbe4c2d49	-0.1993915
232	0xbe442f21	-0.19158603
233	0x3d26ee83	0.040754806
234	0xbdf108a0	-0.11769223
235	0xbd4bfd40	-0.049802065
236	0x3df9fa59	0.12205953
237	0xbe46e476	-0.19423088
238	0x3df5ac9b	0.119958125
239	0xbe4bfe6d	-0.19921274
240	0x3d89c78e	0.06727515
241	0x3e0eb5ae	0.13936493
242	0xbd66724d	-0.05626135
243	0x3e0d226d	0.13782664
244	0xbd0ffe9c	-0.035154924
245	0xbe0e7ced	-0.13914843
246	0xbd25d333	-0.04048462
247	0x3db89e94	0.090146214
248	0x3e457bae	0.19285461
249	0x3e5f56e6	0.21810493
250	0xbe0b87df	-0.1362605
251	0x3e7b70bb	0.24554722
252	0x3dc67333	0.09689941
253	0x3e6be0af	0.23034929
254	0xbd973ad6	-0.07384269
255	0x3cd2f986	0.025753748

lstm.bias_ih_l0 f4 [128]
0	0x3e66684e	0.22500727
1	0xbd2b8698	-0.041876405
2	0x3e79f4a2	0.24409726
3	0x3f48abf6	0.7838739
4	0x3c8a78ab	0.016903242
5	0x3dbff9f2	0.09373845
6	0x3e88eab7	0.26741573
7	0x3d0835ee	0.033254556
8	0xbe69e10e	-0.22839758
9	0x3eb40776	0.35161942
10	0x3e322474	0.17396718
11	0x3bd2d7d5	0.0064344206
12	0xbd3a8c5a	-0.045544006
13	0xbdbbab64	-0.091635495
14	0x3dbba399	0.09162063
15	0x3e8a56f4	0.27019465
16	0xbe00e25a	-0.12586346
17	0xbe232316	-0.15931353
18	0xbdadad00	-0.08480263
19	0x3ceea161	0.029129686
20	0xbc3eb141	-0.01163894
21	0x3e200200	0.15625763
22	0xbcbaf1eb	-0.022820434
23	0xbd76385e	-0.06011235
24	0xbcbfa2c8	-0.02339305
25	0x3eb565c2	0.35429198
26	0xbd5b230f	-0.05350023
27	0x3e4b15b0	0.19832492
28	0x3e1b40d6	0.15161452
29	0x3eed7b1f	0.46382996
30	0x3e92ef56	0.28698224
31	0x3ea7cb55	0.32772318
32	0x3e247ee7	0.16064034
33	0xbd910513	-0.07081046
34	0xbe287e7e	-0.16454503
35	0xbda061ae	-0.07831131
36	0xbe07aa4d	-0.13248558
37	0xbe28b5db	-0.16475622
38	0xbcf32f21	-0.029685559
39	0xbd9d991a	-0.076952174
40	0x3c674fc6	0.014118141
41	0x3e8fde33	0.28099212
42	0xbbdb88f5	-0.006699676
43	0xbd5104db	-0.05103002
44	0x3d3af728	0.045645863
45	0xbe17867e	-0.14797398
46	0xbcb42dce	-0.021994498
47	0x3eee22a6	0.4651081
48	0xbe074616	-0.1321033
49	0xba50aa1e	-0.000795992
50	0xbe3f19b8	-0.18662155
51	0xbd9f7d62	-0.07787587
52	0x3de48e05	0.111599006
53	0xbd397f0b	-0.045287173
54	0x3e9616d2	0.29314286
55	0xbde43867	-0.111435704
56	0xbdcd0203	-0.10010149
57	0xbae977db	-0.0017812209
58	0x3ddfd1c4	0.109286815
59	0xbe2da2bd	-0.16956611
60	0x3e10e8eb	0.14151351
61	0x3eb318f9	0.3497999
62	0x3e6a2777	0.22866617
63	0x3e0b3947	0.13596068
64	0xbddaff22	-0.10693194
65	0xbda142e1	-0.07874084
66	0x3da0992b	0.078417145
67	0x3ce43ff6	0.02786253
68	0x3da9fe62	0.08300473
69	0xbd155473	-0.03645749
70	0x3db96350	0.090521455
71	0x3e4f1f18	0.20226705
72	0xbc2eb69e	-0.0106636565
73	0xbda8ce6a	-0.08242495
74	0xbdef145c	-0.11673805
75	0x3d4b70d3	0.049668144
76	0x3db620db	0.088929854
77	0x395fa25f	0.00021327425
78	0x3e28ffdb	0.16503851
79	0xbd161457	-0.03664049
80	0xbe1852c1	-0.14875318
81	0x3db6bde0	0.089229345
82	0x3d9c867c	0.07642838
83	0x3c968f1d	0.018378789
84	0x3be47062	0.006971405
85	0xbafd5d48	-0.0019330168
86	0x3d0caf96	0.03434714
87	0xbb94b249	-0.004537855
88	0xbcecdb8b	-0.02891328
89	0x3c9d8141	0.019226672
90	0xbd3f20be	-0.046662085
91	0x3cd3e3a2	0.02586538
92	0xbe4a23d3	-0.19740228
93	0xbddfc927	-0.10927039
94	0x3d482fe5	0.0488738
95	0xbd98afce	-0.07455407
96	0x3e180923	0.14847235
97	0x3dc27e86	0.09496789
98	0xbd2c3984	-0.04204704
99	0x3f2a46c8	0.66514254
100	0xbd5d307f	-0.054001328
101	0xbde26691	-0.11054719
102	0x3e19aebc	0.15008062
103	0x3c2b2955	0.010446866
104	0x3cce4690	0.025180131
105	0x3ea09b1d	0.31368342
106	0xbd9e1b81	-0.0772009
107	0xbdfeac00	-0.1243515
108	0xbe3337d5	-0.17501767
109	0xbdd3f648	-0.10349709
110	0xbe25fa5c	-0.16208786
111	0x3e9dfb24	0.30855668
112	0xbe0c4cac	-0.13701123
113	0xbdba92fe	-0.09110068
114	0x3d6084fe	0.05481433
115	0xbd580786	-0.05274155
116	0xbdefa6ae	-0.117017135
117	0xbcd6c8a6	-0.026218724
118	0x3e63350c	0.22188205
119	0xbc92332f	-0.017846672
120	0xbe81430e	-0.2524647
121	0x3eb726d0	0.357718
122	0x3d091e14	0.03347595
123	0x3e998c77	0.2998998
124	0x3da8552d	0.08219371
125	0x3f0870d7	0.5329718
126	0x3e0d4986	0.13797578
127	0x3e2f3511	0.17110087

lstm.bias_hh_l0 f4 [128]
0	0x3e271272	0.1631563
1	0x3dda4537	0.10657733
2	0x3e1c1ff3	0.15246563
3	0x3f2f220f	0.68411344
4	0xbda39e28	-0.0798915
5	0xbdb47796	-0.08811872
6	0x3cdd2413	0.02699474
7	0x3e157acc	0.14597625
8	0xbe0cc9ed	-0.13748904
9	0x3db59180	0.088656425
10	0x3e12007e	0.14258
11	0x3e3d62ed	0.18494768
12	0x3b4299c1	0.0029693695
13	0x3e2f7039	0.17132653
14	0xbdd78057	-0.10522526
15	0x3ec44ea4	0.38341248
16	0xbde99650	-0.11405623
17	0xbd4e2f84	-0.050338283
18	0xbe387c9d	-0.18016286
19	0x3cabba4c	0.020962857
20	0x3d298905	0.041390438
21	0x3e09406c	0.13403481
22	0xbe0754db	-0.13215964
23	0xbe936e57	-0.2879512
24	0xbb0d37ad	-0.0021548078
25	0x3e2b4750	0.16726422
26	0xbdf37d0b	-0.118890844
27	0x3e3cb531	0.18428494
28	0x3e92af90	0.2864957
29	0x3ea791e1	0.32728484
30	0x3e8a9304	0.2706529
31	0x3ea3c288	0.31984353
32	0x3e3dae19	0.18523444
33	0x3cb0d3f6	0.021585446
34	0xbec00d70	-0.37510252
35	0x3d1ce84a	0.038307466
36	0x3dfb55a5	0.12272195
37	0xbe1ac7ab	-0.1511523
38	0xbdb7dd97	-0.08977812
39	0x3deb2b98	0.11482924
40	0xbe08f6a9	-0.13375343
41	0x3e020d26	0.12700328
42	0x3d94bd34	0.0726265
43	0xbd960089	-0.07324321
44	0xbdfcc6db	-0.12342616
45	0x3e43f42d	0.19136114
46	0x3c6b86a1	0.01437536
47	0x3ed2ab69	0.411464
48	0xbdceef5e	-0.101042494
49	0xbe22b12e	-0.15887901
50	0xbd169045	-0.03675868
51	0xbe32a222	-0.17444661
52	0x3d0ba9fd	0.03409766
53	0xbd4facd7	-0.050701942
54	0x3edba791	0.4290128
55	0x3d851aed	0.06499276
56	0x3ceaddf7	0.028670294
57	0xbd1217cf	-0.035667237
58	0xbe0e9bb9	-0.13926591
59	0xbe5e38d3	-0.21701364
60	0x3d56e345	0.052462835
61	0x3e09c244	0.13453013
62	0x3e187f94	0.14892417
63	0x3e129cbe	0.14317605
64	0xbba401e8	-0.00500511
65	0x3db941b5	0.09045736
66	0x3cf6b7a7	0.03011687
67	0xbe4beceb	-0.19914596
68	0x3de0992d	0.10966716
69	0x3dc3aa2c	0.09553942
70	0xbe3df9e3	-0.18552355
71	0x3d0fe0b4	0.035126403
72	0x3d9de97f	0.077105515
73	0xbe09a113	-0.13440351
74	0x3d105d85	0.035245437
75	0xbdad1a3a	-0.08452268
76	0xbc974ea7	-0.018470122
77	0x3cae2108	0.021255985
78	0x3e3ef12f	0.18646692
79	0xbd1014dc	-0.035176143
80	0x3d83b774	0.06431475
81	0x3e24978f	0.1607344
82	0xbdcbc91b	-0.09950467
83	0xbd9c6154	-0.07635751
84	0x3e0d3b63	0.13792185
85	0x3db4152b	0.087931
86	0xbd067915	-0.032830317
87	0x3da34905	0.07972912
88	0xbe08db82	-0.13364986
89	0xbe3a3774	-0.18185216
90	0x3e052cde	0.13005397
91	0xbd9b471f	-0.07581925
92	0x3d84a36b	0.06476482
93	0xbe090890	-0.13382173
94	0x3d9aa35b	0.07550689
95	0xbdc286c9	-0.094983645
96	0x3e9f74d2	0.31143814
97	0xbe0e32d9	-0.13886584
98	0x3e1c5875	0.15268119
99	0x3f52ee52	0.823949
100	0x3dbb9ebe	0.09161137
101	0x3e2eb8f7	0.17062746
102	0x3e9715d1	0.29508832
103	0x3e49cb0c	0.19706362
104	0x3d69b93a	0.05706141
105	0x3ee133dc	0.43984878
106	0x3d43ee03	0.047834408
107	0x3e675aa2	0.22593167
108	0xbe2b27bc	-0.16714376
109	0xbd300575	-0.042973954
110	0xbda96412	-0.0827104
111	0x3e75b298	0.2399391
112	0xbdd8a970	-0.10579193
113	0xbe3c2754	-0.18374377
114	0x3dae4d7e	0.08510874
115	0xbe0217c6	-0.12704381
116	0x3d050a2d	0.032480408
117	0xbd8c72b6	-0.06857817
118	0xbde2c257	-0.11072224
119	0xbd01e421	-0.0317117
120	0xbd01b0bf	-0.0316627
121	0x3e93f706	0.288994
122	0xbd1986f8	-0.03748223
123	0x3e936bed	0.28793278
124	0x3e1116c2	0.14168838
125	0x3f150c14	0.58221555
126	0x3e1a8f0e	0.15093634
127	0x3eaffdae	0.3437323

fc.0.weight f4 [64, 33]
0	0xbe09bcb8	-0.13450897
1	0xbdb7b230	-0.089695334
2	0x3e14aa48	0.14518082
3	0x3bd16be0	0.0063910335
4	0xbdec0114	-0.11523643
5	0xbd3b5a60	-0.045740485
6	0x3e0533e6	0.13008079
7	0x3d65fca4	0.05614914
8	0x3dd58054	0.10424867
9	0x3d1510fc	0.03639315
10	0xbe051651	-0.12996794
11	0xbe0165f2	-0.12636545
12	0xbcbc46e0	-0.022983015
13	0x3de4d638	0.111736715
14	0xbd85ea9d	-0.065388896
15	0x3c3a69d0	0.011377767
16	0x3d7ad2e4	0.061236277
17	0x3dbc247c	0.09186646
18	0xbc74dd40	-0.014945328
19	0x3d764e1c	0.060133085
20	0x3dc1f28c	0.0947009
21	0x3d0432a4	0.032274857
22	0xbdfb2cb2	-0.12264384
23	0xbe30c157	-0.17261253
24	0x3de9646c	0.11396107
25	0xbc2c6f60	-0.010524601
26	0xbdfd8ead	-0.12380729
27	0xbd3145a8	-0.04327932
28	0x3cd4e528	0.025988176
29	0xbb5a3780	-0.003329724
30	0xbe059d5a	-0.13048306
31	0x3de2ef58	0.110808074
32	0xbdd74926	-0.10511999
33	0x3e06bfbc	0.13159078
34	0xbc4b1d59	-0.012397134
35	0x3ce83987	0.028347744
36	0x3e0a9067	0.13531648
37	0xbf1b7573	-0.6072609
38	0x3e6ca78b	0.23110788
39	0xbf3bb441	-0.7332192
40	0xbdc9e4f4	-0.098581225
41	0xbe5c0631	-0.21486737
42	0xbe0b6876	-0.13614067
43	0x3ec5a6c6	0.386038
44	0x3e304119	0.17212333
45	0xbe91a212	-0.28443962
46	0x3f72f926	0.9491142
47	0x3dd49462	0.10379864
48	0x3d762948	0.060097963
49	0xbe408b88	-0.18803227
50	0xbe06066f	-0.13088392
51	0x3d6caf89	0.05778459
52	0xbf15b03d	-0.58472043
53	0xbdb95872	-0.09050073
54	0x3bf9f216	0.007627736
55	0xbd9a05e2	-0.07520653
56	0xbda904cc	-0.08252868
57	0x3e40c567	0.18825303
58	0xbd4b160a	-0.049581565
59	0x3e04837d	0.12940784
60	0x3d63a91d	0.0555812
61	0xbf21bf18	-0.6318221
62	0x3ef1f2a8	0.47255445
63	0x3d8bfd17	0.068353824
64	0x3e469ef4	0.19396573
65	0xbe2e32cd	-0.17011566
66	0x3d221b74	0.039576963
67	0x3db9f659	0.0908019
68	0xbe072027	-0.13195859
69	0x3c9de3ec	0.01927372
70	0x3df42908	0.119218886
71	0xbe0d5d4d	-0.13805123
72	0x3ce0fd57	0.027464552
73	0xbcf72d44	-0.030172952
74	0xbe11657a	-0.14198866
75	0xbc700978	-0.014650695
76	0x3e4c30eb	0.19940536
77	0x3caa24cb	0.020769497
78	0xbbfbd6cc	-0.007685518
79	0x3ddc8c7a	0.10768981
80	0x3cc8cbad	0.024511183
81	0xbcd297ef	-0.025707213
82	0xbdba514d	-0.09097538
83	0x3dc0ec20	0.09420037
84	0x3e2628c6	0.16226491
85	0xbc9e436e	-0.019319262
86	0xbd5ee568	-0.054417998
87	0x3decf00d	0.115692236
88	0x3da522d1	0.08063281
89	0xbe20944b	-0.1568157
90	0x3db29e80	0.08721638
91	0x3de94ce6	0.1139162
92	0x3d271b8d	0.04079776
93	0xbe0a8d8f	-0.13530563
94	0xbce7f149	-0.028313296
95	0xbddab9ba	-0.10679956
96	0x3d9b4865	0.075821675
97	0x3e083771	0.13302399
98	0xbe017730	-0.12643123
99	0xbe3a4ad1	-0.18192603
100	0xbdc28967	-0.09498864
101	0xbe13745a	-0.14399853
102	0x3e843782	0.258236
103	0x3de50430	0.11182439
104	0xbe0e29f7	-0.13883196
105	0x3e854ede	0.26036733
106	0xbe251393	-0.16120748
107	0xbba50f89	-0.0050372523
108	0x3e282ca3	0.16423278
109	0xbe1f8931	-0.15579678
110	0x3ed3ee6e	0.41392845
111	0xbd5dfc96	-0.054195963
112	0x3d1483a9	0.036258373
113	0xbe27fb3b	-0.1640443
114	0xbe37021a	-0.17871895
115	0x3d81f3ba	0.06345315
116	0x3d7b55bf	0.06136107
117	0xbdc7cbe3	-0.09755685
118	0x3e076a2b	0.13224094
119	0x3dbf7bdc	0.09349796
120	0xbe66f2bd	-0.22553535
121	0xbda9368d	-0.08262358
122	0x3dea2170	0.11432159
123	0x3d864774	0.06556597
124	0x3f3d463d	0.739353
125	0xbe8cf4dc	-0.27530563
126	0x3eae9c8a	0.34103805
127	0xbd4ecdec	-0.05048935
128	0x3f074a9f	0.5284824
129	0xbf5aea93	-0.8551418
130	0x3e9fb140	0.3118992
131	0xbdca60f2	-0.09881772
132	0xbdbfaf28	-0.0935958
133	0xbe61d1f5	-0.22052749
134	0x3e479b5e	0.19492862
135	0xbe87680a	-0.26446563
136	0xbd5c13b6	-0.053729735
137	0x3e532971	0.20621277
138	0xbe07eae9	-0.13273205
139	0x3b08eb6d	0.0020892278
140	0xbe215253	-0.1575406
141	0xbcd1d178	-0.025612578
142	0x3e28a753	0.16470079
143	0xbebab7d9	-0.3646839
144	0xbdcd7c36	-0.10033457
145	0xbd546c8d	-0.051861335
146	0xbce2b0f4	-0.027672268
147	0xbe348c42	-0.17631629
148	0xbea7e022	-0.32788187
149	0xbe4d0967	-0.20023118
150	0x3e430ed1	0.19048621
151	0xbe88a870	-0.26691008
152	0xbddfb577	-0.109232835
153	0x3f02c46e	0.5108098
154	0xbe82ad2e	-0.2552275
155	0xbe82a2c1	-0.25514796
156	0x3d9e9c12	0.07744612
157	0xbea439e9	-0.32075432
158	0x3e04de80	0.12975502
159	0xbd69c2c1	-0.057070497
160	0xbe69c613	-0.22829466
161	0xbdee259b	-0.116282664
162	0xbe863b83	-0.2621728
163	0x3d7e1875	0.062035043
164	0x3e960010	0.29296923
165	0xbd2b34a9	-0.041798268
166	0x3da6e604	0.08149341
167	0xbe412838	-0.18862998
168	0x3e0e6e2b	0.13909213
169	0xbd59b99a	-0.05315552
170	0x3d515fde	0.051116817
171	0xbd4bcf74	-0.04975839
172	0x3dd757a7	0.10514765
173	0xbd9eab43	-0.07747509
174	0xbdb8f3db	-0.09030887
175	0xbe30ca1f	-0.17264603
176	0x3d64ed47	0.055890348
177	0x3e04a57a	0.1295375
178	0x3e006876	0.12539849
179	0xbd9bb8d9	-0.07603616
180	0x3c802788	0.01564385
181	0x3d26109d	0.040543187
182	0xbe15c9bc	-0.14627737
183	0xbddfbcb5	-0.10924665
184	0x3a2d278f	0.0006605321
185	0xbda64626	-0.081188485
186	0x3a9abb86	0.0011805154
187	0xbdbf1853	-0.09330811
188	0xbb27bcf4	-0.0025594803
189	0x3dd7421c	0.10510656
190	0x3e57b9ab	0.2106692
191	0x3d3ae840	0.045631647
192	0x3de493f7	0.111610346
193	0x3d076b07	0.033061054
194	0x3de88b31	0.11354674
195	0x3b22ce5e	0.0024842243
196	0x3e3d853d	0.18507858
197	0xbdbf4805	-0.093399085
198	0x3d5fc3fa	0.054630257
199	0x3daa9736	0.083296224
200	0xbd913be1	-0.07091499
201	0xbe46add3	-0.19402246
202	0x3df670a0	0.120332
203	0x3d9634a5	0.0733426
204	0xba2c3f05	-0.000657067
205	0x3e525dc0	0.20543575
206	0xbd9bda57	-0.076100044
207	0x3ddec02c	0.108764976
208	0xbde9a196	-0.11407773
209	0x3e0df338	0.13862312
210	0x3e30fbba	0.17283526
211	0x3dfb7e49	0.12279946
212	0xbd8b5139	-0.06802601
213	0x3c35a44f	0.0110865375
214	0xbdc66b22	-0.09688403
215	0x3db3dc82	0.08782293
216	0x3cbec58c	0.023287557
217	0x3e3116c5	0.17293842
218	0x3db2074c	0.08692798
219	0xbe1e61a8	-0.1546694
220	0xbe242f6b	-0.16033714
221	0x3e249b5b	0.16074888
222	0xbc01a88c	-0.00791372
223	0x3c91d0b2	0.017799709
224	0xbb9eb101	-0.004842878
225	0xbe056195	-0.13025506
226	0x3d5f890f	0.05457407
227	0x3e2e183c	0.17001432
228	0xbd5c414d	-0.053773213
229	0xbe4219c3	-0.1895514
230	0xbe3efabf	-0.1865034
231	0xbb9029f9	-0.004399535
232	0x3ddef9a0	0.10887456
233	0xbe828b00	-0.25496674
234	0x3df6096a	0.12013514
235	0xbe3bebe7	-0.18351708
236	0xbd551108	-0.052018195
237	0x3d2fc54a	0.04291276
238	0xbe4dce48	-0.20098221
239	0x3deeea73	0.116658114
240	0xbd6993e2	-0.057025798
241	0xbdc0c57b	-0.094126664
242	0xbddcb1ce	-0.10776101
243	0x3e095d55	0.1341451
244	0x3d17f025	0.037094254
245	0xbdda3cbf	-0.10656118
246	0x3e8d671a	0.27617723
247	0x3d5a12bf	0.053240534
248	0xbdbd57e6	-0.09245281
249	0xbdc40350	-0.09570944
250	0x3e690a12	0.22757748
251	0xbdd54835	-0.10414163
252	0x3d361e86	0.044462703
253	0xbe19adfd	-0.15007778
254	0x3e554b81	0.20829584
255	0xbcf00063	-0.02929706

fc.0.bias f4 [64]
0	0xbe2e7388	-0.17036259
1	0xbd447d63	-0.04797114
2	0xbdaf04cf	-0.08545839
3	0xbe182d99	-0.14861144
4	0xbded3015	-0.115814365
5	0x3e374160	0.17896032
6	0x3e628350	0.22120404
7	0x3c24a9f7	0.010050288
8	0x3dfb211b	0.12262174
9	0xbe188c67	-0.14897309
10	0x3e26fd31	0.16307522
11	0x3da3a68b	0.0799075
12	0xbe449268	-0.19196475
13	0x3e495941	0.19662954
14	0xbda9c876	-0.08290188
15	0xbdb1e644	-0.08686498
16	0xbcff66fa	-0.031177033
17	0x3ced23cc	0.028947733
18	0x3ccce763	0.025012678
19	0xbe4cdec1	-0.20006849
20	0xbe17fa34	-0.14841539
21	0xbdc68219	-0.09692783
22	0x3dcc3a18	0.09972018
23	0x3e1c013e	0.15234849
24	0x3d82fff5	0.06396476
25	0x3e0dd336	0.13850102
26	0xbde40985	-0.11134628
27	0xbdd4ca96	-0.10390203
28	0xbde40fd7	-0.11135834
29	0xbe1876f7	-0.14889131
30	0xbe2570bf	-0.1615629
31	0xbc930b3b	-0.017949691
32	0x3dced21f	0.10098671
33	0xbcf8549d	-0.030313784
34	0xbd992c26	-0.07479124
35	0xbe304502	-0.17213824
36	0xbdc73d7a	-0.097285226
37	0x3e1095d2	0.14119652
38	0x3e4f402c	0.20239323
39	0xbdb21190	-0.08694756
40	0x3e4f5e26	0.20250759
41	0xbe0e15c4	-0.1387549
42	0x3d34390e	0.043999724
43	0xbe1257d7	-0.1429132
44	0xbdfe61d5	-0.12421004
45	0xbdb6ad3f	-0.08919763
46	0x3e364d0c	0.17802829
47	0xbe18ba29	-0.14914764
48	0xbca26153	-0.019821798
49	0xbe21fcc2	-0.15819076
50	0xbe02f364	-0.12788159
51	0x3daab113	0.083345555
52	0x3e0ff142	0.14056876
53	0xbe0dfa1b	-0.13864939
54	0xbe156dba	-0.14592639
55	0xbe42b841	-0.190156
56	0xbd873e79	-0.066037126
57	0xbe2fb75f	-0.17159794
58	0xbe40f45b	-0.18843214
59	0xbd95b533	-0.07309952
60	0x3e1c3c7d	0.1525745
61	0xbd8d22f4	-0.068914324
62	0x3e42b25b	0.1901335
63	0x3e2dc85c	0.16970962

fc.2.weight f4 [32, 64]
0	0xbd7ac53c	-0.061223254
1	0xbe93be47	-0.28856108
2	0xbd3a6ae4	-0.045512095
3	0xbcb129e3	-0.021626418
4	0x3e5f921b	0.21833079
5	0x398dc60b	0.0002704117
6	0x3d5ad17e	0.053422444
7	0xbe19761f	-0.14986466
8	0xbdc143e0	-0.09436774
9	0xbdc82ff4	-0.09774771
10	0x3e7a7b5d	0.24461122
11	0x3e06d3ea	0.13166776
12	0xbdeabd23	-0.11461856
13	0x3e15ae37	0.14617239
14	0x3d9a8f8a	0.07546909
15	0xbe9317f2	-0.28729206
16	0x3e6c4446	0.23072919
17	0x3da7c3f0	0.08191669
18	0x3e7bfcbf	0.24608134
19	0x3e582d05	0.21110924
20	0x3c903001	0.017601015
21	0xbd0e5cc0	-0.034756422
22	0x3e07a710	0.13247323
23	0x3e0350dc	0.12823814
24	0x3b461d4d	0.0030229867
25	0x3d918c78	0.071068704
26	0x3d933016	0.07186906
27	0x3c65f910	0.014036432
28	0xbbf61f64	-0.0075110663
29	0x3d896421	0.06708551
30	0x3ca39fea	0.019973714
31	0x3de0b0ad	0.10971198
32	0xbd7e74c9	-0.062123094
33	0xbd3d4474	-0.04620786
34	0x3c21a4c6	0.009865945
35	0x3d20b8e4	0.039238825
36	0xbd90f9be	-0.070788845
37	0x3da543a5	0.08069543
38	0x3e14c87f	0.14529608
39	0xbda34215	-0.079715885
40	0x3d3ae815	0.045631487
41	0xbce4a5ee	-0.027911153
42	0x3e0df72c	0.1386382
43	0xbd56c5d4	-0.052434757
44	0x3da682bc	0.08130404
45	0xbd5aa340	-0.053378344
46	0x3e28e660	0.16494131
47	0x3ea0a66b	0.31376967
48	0xbda6320b	-0.08115014
49	0xbdb50163	-0.08838155
50	0xbb7eb1c0	-0.0038863271
51	0x3d36cc02	0.04462815
52	0x3e138c41	0.14408971
53	0x3de7ba25	0.11314801
54	0xbd21719b	-0.039414983
55	0x3d181f83	0.037139427
56	0x3d115be8	0.03548804
57	0x3d8e5d74	0.069514185
58	0xbe1b72bc	-0.15180486
59	0xbd809416	-0.06278245
60	0x3d038588	0.032109767
61	0x3be8e450	0.007107295
62	0x3c1b1f4e	0.009467913
63	0xbcbfcffb	-0.023414603
64	0xbd8cdf12	-0.06878485
65	0xbdf0d282	-0.11758901
66	0xbdca2adc	-0.09871456
67	0x3d72ae50	0.05924827
68	0x3bd1d33b	0.0064033545
69	0xbd10e368	-0.03537312
70	0xbd26f060	-0.040756583
71	0x3d2157dc	0.03939043
72	0xbd9d966d	-0.07694707
73	0xbdfaddcc	-0.12249336
74	0xbd9cc7f7	-0.07655328
75	0xbd765b99	-0.060145948
76	0xbcf711e8	-0.030159906
77	0xbe114e6f	-0.14190076
78	0xbc9fe100	-0.019516468
79	0xbde90178	-0.11377233
80	0x3d8d924f	0.06912672
81	0xbdf45350	-0.11929953
82	0x3d110256	0.03540262
83	0xbd59b1c8	-0.05314806
84	0x3cbcc2b0	0.023042053
85	0xbdf45b6a	-0.11931498
86	0x3d423b22	0.047419675
87	0xbd2c5ab2	-0.04207868
88	0xbdd17238	-0.102268636
89	0xbdd23232	-0.1026348
90	0xbd294400	-0.041324615
91	0xbdb8af96	-0.09017865
92	0xbda7fc9f	-0.082024805
93	0xbdc749ea	-0.09730895
94	0xbdf41416	-0.119178936
95	0xbd358616	-0.044317327
96	0xbcc7941c	-0.024362616
97	0x3c7973e0	0.015225381
98	0xbdfd37ec	-0.12364182
99	0x3d8ed9d8	0.06975144
100	0x3d6fbca8	0.058529526
101	0x3d40fcb2	0.04711599
102	0x3dc0d29f	0.09415173
103	0xbd501814	-0.050804213
104	0x3dbafcad	0.09130225
105	0x3d8ee42a	0.069771126
106	0x3d8311de	0.06399892
107	0xbdf20b1a	-0.11818524
108	0x3cfdbd48	0.030974045
109	0x3b8a07c0	0.0042123497
110	0x3db4db1d	0.08830855
111	0xbdf10729	-0.11768944
112	0x3c9bea83	0.019032722
113	0xbd9009e6	-0.07033138
114	0xbda6319c	-0.08114931
115	0xbcb83c54	-0.022489704
116	0x3ccc8c53	0.024969256
117	0xbdc6ab8e	-0.0970069
118	0x3d90e8e6	0.07075672
119	0x3d84a106	0.06476025
120	0xbd1d3638	-0.038381785
121	0x3c299880	0.0103513
122	0x3d68aec4	0.056807294
123	0x3deefade	0.11668943
124	0x3d20fa33	0.03930111
125	0x3d490741	0.049079183
126	0xbbcfbaf1	-0.006339424
127	0xbd802103	-0.062562965
128	0x3dac720a	0.08420189
129	0xbc909a78	-0.017651781
130	0x3b51d500	0.0032017827
131	0x3ddfb368	0.10922891
132	0xbd650bce	-0.05591946
133	0xbd929885	-0.07157997
134	0xbdebd2ac	-0.11514792
135	0x3d78cb0c	0.060740516
136	0x3d765fdb	0.06015001
137	0x3dbe8f08	0.09304625
138	0xbcf5f2e0	-0.030023038
139	0xbc996ec8	-0.018729582
140	0xbd2e477c	-0.04254864
141	0x3ce599b9	0.028027402
142	0x3d623290	0.055224
143	0xbd061a1c	-0.032739744
144	0xbddb3dfd	-0.10705183
145	0xbe17a20e	-0.14807913
146	0xbc9afa9e	-0.018918332
147	0xbaa020be	-0.0012216789
148	0xbcd93d30	-0.026518434
149	0xbd09d04c	-0.033645913
150	0x3cbc1910	0.02296117
151	0xbd405f6a	-0.046965994
152	0x3d877f5f	0.06616091
153	0x3cfbd7f3	0.030742621
154	0x3c9a8cd0	0.018865973
155	0xbd80f06e	-0.06295858
156	0xbd43873c	-0.04773639
157	0x3d3c6a28	0.045999676
158	0xbb216180	-0.0024624765
159	0xbda5c9ec	-0.08095154
160	0x3d8e432e	0.06946407
161	0xbdf7aacc	-0.12093124
162	0x3cb18de0	0.021674097
163	0xbda50a7e	-0.08058642
164	0x3d46e072	0.04855389
165	0xbc9a82b7	-0.018861158
166	0x3dc78c0c	0.09743509
167	0x3ba39680	0.004992306
168	0xbd378e04	-0.04481317
169	0xbd4d6f30	-0.050154865
170	0xbd93f6e0	-0.07224822
171	0xbdbe3f66	-0.09289436
172	0xbda1ccae	-0.07900368
173	0xbcfd5d20	-0.030928195
174	0x3aac8372	0.0013161732
175	0x3db7bd09	0.089716025
176	0xbde10385	-0.109869994
177	0xbcc82128	-0.024429873
178	0x3df0c578	0.11756414
179	0xbe01a8bd	-0.12662025
180	0xbe01dfdc	-0.12683052
181	0x3dffe298	0.12494391
182	0xbc3e186b	-0.011602501
183	0xbc0dece0	-0.008662432
184	0x3d292d6c	0.041303083
185	0xbdc7ddf4	-0.09759131
186	0xbcd6b2a8	-0.026208237
187	0xbdda091c	-0.10646269
188	0x3dfc8aac	0.12331137
189	0x3d863d37	0.065546446
190	0xbdbc6646	-0.091991946
191	0x3d7084c6	0.058720373
192	0x3da82000	0.082092285
193	0xbe4a0ad7	-0.19730698
194	0xbdef136b	-0.116736256
195	0xbe3e30af	-0.18573259
196	0x3ea47172	0.32117802
197	0xbdc20cec	-0.09475121
198	0xbdcdbef3	-0.10046186
199	0xbde03ed6	-0.10949485
200	0xbb248599	-0.0025104044
201	0xbde7f226	-0.11325483
202	0x3e03c707	0.12868892
203	0x3e0ef450	0.13960385
204	0x3d4fefc9	0.050765786
205	0xbd701c8c	-0.058620974
206	0x3cfb0070	0.030639857
207	0xbea2d172	-0.3180042
208	0x3dce0df4	0.10061255
209	0xbd27ce3b	-0.04096816
210	0x3e7ba1a4	0.2457338
211	0x3e2cddb8	0.16881454
212	0xbd0e4124	-0.03473009
213	0xbe05c67d	-0.13063999
214	0x3e1dc351	0.15406539
215	0x3dd58a14	0.10426727
216	0x3dc4334f	0.09580099
217	0x3d958d99	0.07302398
218	0x3db1d88a	0.0868388
219	0xbd45ee17	-0.048322763
220	0xbdf14006	-0.117797896
221	0xbd6830f7	-0.05668732
222	0xbcff4e7b	-0.031165352
223	0x3db0db45	0.08635572
224	0xbca14956	-0.01968829
225	0xbe028543	-0.12746148
226	0x3d8a7121	0.06759859
227	0x3d6ee964	0.058328047
228	0xbe4e92fa	-0.20173255
229	0x3d66da84	0.056360736
230	0xbda6d44c	-0.08145961
231	0x3cd8a705	0.026446829
232	0xbdc3654d	-0.09540806
233	0xbdd1810e	-0.10229693
234	0xbc60b9ce	-0.013716174
235	0x3c616ac0	0.013758361
236	0xbdfeec18	-0.12447375
237	0x3d581724	0.052756444
238	0x3e03ebfa	0.12882987
239	0x3da2fd0d	0.07958422
240	0xbd102a3f	-0.03519654
241	0xbd500540	-0.050786257
242	0xbc596ed0	-0.013271049
243	0xbd548edf	-0.051894065
244	0xbda4ab19	-0.08040447
245	0xbb9cd537	-0.0047861594
246	0xbe33e714	-0.17568618
247	0xbc8f5f20	-0.017501414
248	0x3c28056e	0.010255201
249	0xbb16e980	-0.002302736
250	0xbe427a66	-0.18992004
251	0x3d4b39cb	0.049615663
252	0x3da3cb08	0.079977095
253	0x3e176eb5	0.14788325
254	0xbd97a23d	-0.07403991
255	0x3d7b7bef	0.06139749

fc.2.bias f4 [32]
0	0x3d153956	0.036431633
1	0xbc2be110	-0.010490671
2	0xbd5f2cc8	-0.054486066
3	0x3e06be46	0.13158521
4	0x3d3529c7	0.044229295
5	0xbdcafdb4	-0.09911671
6	0x3c59eaa4	0.013300572
7	0x3d4008a5	0.046883244
8	0x3dd02fee	0.10165392
9	0x3ddaf1e1	0.10690666
10	0x3c26885a	0.010164345
11	0xbc527092	-0.012844222
12	0xbdc77bb6	-0.09740393
13	0x3d74a2d4	0.059725598
14	0x3d51c1b1	0.05121011
15	0xbbb6d191	-0.0055791815
16	0xbe0a5b0b	-0.13511293
17	0xbe0035b9	-0.12520494
18	0x3de4f059	0.11178655
19	0x3da1789e	0.07884334
20	0x3c93cfd2	0.018043432
21	0xbde133b6	-0.10996191
22	0x3dd76e9d	0.10519145
23	0xbb917ee1	-0.004440174
24	0x3dbcd91d	0.092210986
25	0xbd93eb18	-0.07222575
26	0xbde038d9	-0.10948343
27	0xbc08d83c	-0.008352336
28	0xbdf98316	-0.12183206
29	0x3de6e89a	0.11274834
30	0x3d415958	0.047204345
31	0xbdb8ad8c	-0.090174764

fc.4.weight f4 [1, 32]
0	0x3e0e4d85	0.13896759
1	0xbd037581	-0.032094482
2	0xbdb77c30	-0.08959234
3	0x3d631cc2	0.055447347
4	0x3e65efd0	0.22454762
5	0xbbe3b973	-0.0069495975
6	0xbf138eaf	-0.5763959
7	0xbf352667	-0.7076172
8	0x3dcdbec9	0.10046155
9	0x3d942f18	0.07235545
10	0x3e04114e	0.12897226
11	0xbc58548d	-0.013203752
12	0xbc13dded	-0.009025079
13	0xbf2c6ad1	-0.6735049
14	0xbdae28ff	-0.08503913
15	0xbcdee308	-0.027207866
16	0x3db4ce1e	0.08828376
17	0x3da4b08d	0.08041487
18	0x3e097517	0.13423572
19	0x3dd419bf	0.10356473
20	0x3e22a6ab	0.15883891
21	0xbd8ba3bd	-0.0681834
22	0x3dc696eb	0.09696754
23	0xbf12a951	-0.57289606
24	0x3e5285ce	0.20558855
25	0xbc167358	-0.0091827735
26	0x3df9addc	0.12191364
27	0x3cf7dd61	0.030256929
28	0x3dbaa9da	0.09114428
29	0x3e5b62f8	0.21424472
30	0xbc94dfa1	-0.01817304
31	0x3d129068	0.035782248
